single_point_model_psnr.pt (torch, 23435 bytes, 56 tensors)

exp_avg f4 [2, 4, 3, 3]
000000 d8 63 0d b8 34 74 75 36 e6 e7 9b 36 30 f6 0b b7
       -3.3710006e-05 3.6575484e-06 4.6463565e-06 -8.342366e-06
000010 c2 4b ec 36 09 4f d6 36 7c ab 42 b7 24 c0 c5 36
       7.0421675e-06 6.386898e-06 -1.1603228e-05 5.8934256e-06
000020 22 ef 72 b7 21 49 58 38 cb d6 8a b8 fd b0 83 b8
       -1.44800015e-05 5.156652e-05 -6.620361e-05 -6.2795334e-05
000030 3e b1 39 38 51 09 41 37 e8 ca 6e 38 0f 1c 38 36
       4.4272507e-05 1.1505866e-05 5.6932593e-05 2.7434469e-06
000040 7b 9d 10 b8 28 75 f4 b7 c8 1d 51 37 a2 df c0 b6
       -3.447894e-05 -2.9141622e-05 1.2464305e-05 -5.74808e-06
000050 e1 a1 ac b6 01 25 d5 b7 ba 72 93 37 de 9b c9 b6
       -5.1448446e-06 -2.540881e-05 1.757719e-05 -6.008412e-06
000060 e0 3e b1 b6 ad df 82 b7 03 70 56 b7 6e 0e 71 37
       -5.2823307e-06 -1.5601365e-05 -1.2781474e-05 1.4368079e-05
000070 fd e3 a4 b6 c8 62 48 37 ca c5 2c 37 a8 8a ad 35
       -4.914122e-06 1.1943928e-05 1.029805e-05 1.2929859e-06
000080 1d f5 a1 b6 f7 83 73 b6 c8 c9 af 37 8a e1 be b5
       -4.826709e-06 -3.6286635e-06 2.0955587e-05 -1.4221744e-06
000090 6f 69 1c 39 de 16 be b8 a0 e1 69 39 9e 1d 26 b6
       0.00014916596 -9.064165e-05 0.00022304663 -2.4753167e-06
0000a0 8d b2 29 38 e7 49 1a b6 ca 90 1a 39 be 1f 21 b8
       4.045903e-05 -2.2990805e-06 0.00014740523 -3.8414953e-05
0000b0 82 47 1a 39 49 97 c3 b8 1c da 3e 39 2f 8c 80 39
       0.00014713223 -9.326504e-05 0.00018201064 0.00024518507
0000c0 f5 66 10 b9 58 43 64 39 93 f5 88 b9 47 a2 c1 b8
       -0.00013771265 0.00021768862 -0.00026122908 -9.233184e-05
0000d0 64 c2 53 39 5e 91 87 39 b9 8c de 37 26 5d 4c 38
       0.00020194944 0.00025857514 2.6529991e-05 4.872414e-05
0000e0 68 9e c2 37 86 d9 93 b8 fd 36 e8 b8 54 43 05 38
       2.3200366e-05 -7.050023e-05 -0.000110728644 3.1772375e-05
0000f0 44 0e 4c 38 a7 76 72 b7 e5 4e fe 36 d9 95 f2 38
       4.8650676e-05 -1.445195e-05 7.5789744e-06 0.000115673705
000100 1e 33 41 38 20 3c b0 b8 24 3b 99 b8 1d 73 34 b7
       4.6062392e-05 -8.403533e-05 -7.306624e-05 -1.0755638e-05
000110 95 7c 36 37 6f 1c a0 39 1d 86 54 b7 a2 b3 93 38
       1.0877052e-05 0.00030538763 -1.266741e-05 7.0429654e-05

exp_avg_sq f4 [2, 4, 3, 3]
000000 d2 b4 cc 35 01 cf bf 37 9b c7 40 38 c5 93 38 37
       1.525181e-06 2.2865368e-05 4.5962264e-05 1.100166e-05
000010 7e 2d d4 36 a4 43 42 37 6d c5 2f 38 b4 c9 f6 35
       6.3233883e-06 1.157905e-05 4.190712e-05 1.8387132e-06
000020 dd 00 18 38 9c bf 3f 36 44 32 db 36 3d 1d cc 37
       3.6240428e-05 2.857275e-06 6.5325603e-06 2.433231e-05
000030 35 62 28 37 db 77 17 38 69 21 2f 37 92 5a 0c 36
       1.0036446e-05 3.611283e-05 1.0438592e-05 2.0914345e-06
000040 fe 56 82 37 e5 68 44 36 94 f1 5e 37 10 de f4 37
       1.5537717e-05 2.9267333e-06 1.3288478e-05 2.9190473e-05
000050 fe e9 a6 37 d8 c3 de 37 9a c3 9d 37 56 da 94 37
       1.9897703e-05 2.655566e-05 1.8806943e-05 1.7744645e-05
000060 73 c4 12 37 f0 54 8a 37 07 b0 98 37 60 d6 73 38
       8.7480175e-06 1.6490434e-05 1.8201781e-05 5.8135367e-05
000070 3f 2b ce 36 a9 aa c4 35 cd fa 5d 38 1a ce c3 36
       6.144313e-06 1.4652807e-06 5.2924082e-05 5.8354462e-06
000080 c8 5f 33 37 79 80 48 37 4e 56 c9 37 87 46 85 37
       1.0691532e-05 1.1950841e-05 2.4001256e-05 1.5887677e-05
000090 db 0f ea 36 73 0d cd 38 42 29 d3 37 52 48 58 37
       6.9755893e-06 9.777667e-05 2.5172372e-05 1.2891442e-05
0000a0 70 91 e4 37 af 62 68 39 36 7e 8b 36 8b d1 e9 37
       2.7247443e-05 0.00022162007 4.1572157e-06 2.787334e-05
0000b0 1d 1d 7c 38 44 e0 cc 37 6f fe 58 37 dd ea df 37
       6.0108596e-05 2.4423127e-05 1.2933843e-05 2.6693038e-05
0000c0 a9 3a 56 37 1b 87 06 37 68 fc 8a 37 da a7 6d 37
       1.2769052e-05 8.018479e-06 1.6568418e-05 1.4165382e-05
0000d0 35 74 29 37 2f 00 84 37 56 56 60 38 85 65 69 37
       1.01002415e-05 1.5735712e-05 5.348617e-05 1.3911519e-05
0000e0 30 2d e6 36 86 2a 1d 38 37 73 1b 38 1a c9 b5 37
       6.8597947e-06 3.747132e-05 3.7062182e-05 2.1670527e-05
0000f0 5f a1 a8 37 00 41 81 37 fb 54 b6 36 4f b6 97 37
       2.0102305e-05 1.5408266e-05 5.4339157e-06 1.8085497e-05
000100 e2 9b 93 37 87 0f ed 36 13 68 0e 38 cb 09 a3 37
       1.7596354e-05 7.064958e-06 3.3952365e-05 1.9435674e-05
000110 6e 88 8c 37 64 d9 ae 37 08 71 9d 37 f8 06 85 36
       1.675283e-05 2.0843647e-05 1.8768493e-05 3.96452e-06

exp_avg f4 [2]
000000 cf 13 01 ae 43 ff 44 32
       -2.9348798e-11 1.1466741e-08

exp_avg_sq f4 [2]
000000 a2 d8 eb 28 d3 67 58 29
       2.618419e-14 4.8051688e-14

exp_avg f4 [2]
000000 dc db 05 b9 bd ab c0 37
       -0.00012765772 2.2968155e-05

exp_avg_sq f4 [2]
000000 b9 c7 ae 37 82 f4 1b 37
       2.083542e-05 9.295649e-06

exp_avg f4 [2]
000000 a7 e7 13 b7 89 8b ad 36
       -8.815819e-06 5.172046e-06

exp_avg_sq f4 [2]
000000 1e a6 69 33 5d bc d5 32
       5.4400623e-08 2.4882121e-08

exp_avg f4 [4, 2, 3, 3]
000000 36 6a 39 37 5e 8d 83 b6 dd c9 42 38 b1 15 bc b7
       1.1051588e-05 -3.9205615e-06 4.6441204e-05 -2.2421447e-05
000010 68 33 94 b7 12 5a 3e b7 32 ce 26 38 e3 02 ed b6
       -1.7666913e-05 -1.1345854e-05 3.976952e-05 -7.0634865e-06
000020 00 25 c8 37 70 fd ad 38 dd 7f 6f b7 8d d5 50 38
       2.3859087e-05 8.296489e-05 -1.4275281e-05 4.978995e-05
000030 37 b1 92 b8 ac 86 99 b8 98 07 1c b9 f0 6f c2 37
       -6.994831e-05 -7.320693e-05 -0.00014880148 2.3178727e-05
000040 1f d4 c4 b6 af 61 0f b9 50 ea 99 35 f0 78 33 35
       -5.8659493e-06 -0.00013673933 1.1467582e-06 6.6858684e-07
000050 a9 63 85 35 19 b2 eb 34 0a 66 01 35 c5 e3 ef 35
       9.938277e-07 4.3901744e-07 4.820473e-07 1.7873177e-06
000060 a4 20 b0 35 d5 9b 2a 35 ce 77 ef 34 c1 e0 6b 36
       1.3122522e-06 6.35567e-07 4.4604388e-07 3.5148553e-06
000070 cb 1b 41 37 e4 ad 22 36 d0 2d 60 36 58 ff 91 37
       1.15101675e-05 2.4241099e-06 3.3405267e-06 1.740425e-05
000080 4a ff f3 36 fc 10 e7 36 32 43 75 36 38 f3 e4 36
       7.271684e-06 6.8863137e-06 3.6546958e-06 6.823244e-06
000090 55 02 80 18 22 b7 6f 97 95 da 7e 98 6c 12 20 18
       3.308958e-24 -7.745621e-25 -3.2939086e-24 2.0688816e-24
0000a0 9b ee 33 19 d4 05 75 19 b9 41 79 18 14 85 7a 96
       9.302269e-24 1.266738e-23 3.2215677e-24 -2.0236831e-25
0000b0 22 85 9f 98 8a 04 2d 9b 72 d3 b1 9b f5 34 e0 9a
       -4.1234966e-24 -1.4311691e-22 -2.9418837e-22 -9.2729785e-23
0000c0 c5 ff d3 1a 94 fa 1b 9b 9d e3 e4 9a 59 3f cf 99
       8.768077e-23 -1.2902266e-22 -9.466632e-23 -2.1428884e-23
0000d0 ec 6c b4 1a ac 31 94 1b fb 59 a8 37 8b 8c cf b5
       7.462223e-23 2.4516646e-22 2.0069061e-05 -1.5463605e-06
0000e0 ab e7 a9 35 34 a7 57 37 ae 06 28 b7 f4 a0 03 b6
       1.2658905e-06 1.2853929e-05 -1.0015136e-05 -1.9614208e-06
0000f0 18 35 81 37 de 83 3d 37 5b 05 da b7 d0 f2 3c 37
       1.5402722e-05 1.1295981e-05 -2.5990119e-05 1.1262207e-05
000100 b7 a1 5d 38 9f 9a 8d 38 ad b5 be 37 49 f5 06 38
       5.2841115e-05 6.752204e-05 2.2734364e-05 3.217653e-05
000110 1f b9 0d 39 f4 19 48 b7 12 93 08 39 a3 0f 12 36
       0.00013515771 -1.1926972e-05 0.00013024759 2.1764797e-06

exp_avg_sq f4 [4, 2, 3, 3]
000000 be f5 72 37 68 9a 47 36 78 b4 a3 37 ff e7 93 36
       1.448154e-05 2.9743187e-06 1.9515152e-05 4.4079493e-06
000010 0d 1d 7b 37 45 a8 60 37 ff 66 14 38 a6 f3 24 37
       1.496753e-05 1.3390619e-05 3.5381872e-05 9.831891e-06
000020 42 d0 58 37 d2 fc f3 37 c3 19 68 38 97 49 d7 37
       1.2923092e-05 2.9085586e-05 5.5337103e-05 2.5664265e-05
000030 23 30 57 37 5c 9a 8a 38 0c 82 e3 37 a4 7e 3a 38
       1.2826206e-05 6.6091045e-05 2.7121067e-05 4.44638e-05
000040 4d 29 c4 37 7e 8b 84 37 95 ad e2 36 f4 9d 77 36
       2.3384253e-05 1.5800582e-05 6.7555325e-06 3.689781e-06
000050 7d 70 0a 38 02 b6 5f 36 16 5d 48 37 d4 55 10 38
       3.3006527e-05 3.3335532e-06 1.1942602e-05 3.441221e-05
000060 de 46 b4 37 67 b0 39 37 31 94 d2 36 cc 34 5f 37
       2.1490672e-05 1.1067931e-05 6.2757395e-06 1.33041285e-05
000070 d3 b5 86 37 fd 89 b4 37 75 87 79 38 9b 4c 02 38
       1.6058713e-05 2.1521928e-05 5.949238e-05 3.106576e-05
000080 9b d0 12 37 5b be 5e 37 37 af be 38 41 6b 08 38
       8.750848e-06 1.3276552e-05 9.092542e-05 3.2524815e-05
000090 22 e1 56 36 db 38 05 38 fd 86 1f 37 40 43 7f 36
       3.201953e-06 3.176262e-05 9.508568e-06 3.8037106e-06
0000a0 74 af 2c 37 61 f4 a9 37 7e 69 01 36 61 52 a5 37
       1.029285e-05 2.0260168e-05 1.9283902e-06 1.9707893e-05
0000b0 6c 07 e3 35 2c 8d ee 35 9f 74 c8 35 c9 8d f9 37
       1.6914978e-06 1.7773468e-06 1.4935102e-06 2.9749137e-05
0000c0 2d ee 0c 38 79 ee 99 34 0a 0c 0c 37 9d b6 8e 35
       3.360042e-05 2.8671982e-07 8.347453e-06 1.0632972e-06
0000d0 91 9f 1c 37 b5 54 cf 36 6e c4 ab 34 aa a7 2b 36
       9.3354765e-06 6.178942e-06 3.1994153e-07 2.557858e-06
0000e0 4f 0a ab 35 b2 c3 7c 36 7a 57 5c 35 25 ac 62 36
       1.2743493e-06 3.7664836e-06 8.208368e-07 3.3776826e-06
0000f0 6b e1 7c 34 ab da e7 36 a9 c8 d9 35 1b 90 df 35
       2.3551335e-07 6.909793e-06 1.622616e-06 1.6656735e-06
000100 03 5f 1a 36 25 7b e2 36 52 9d bf 36 0e 80 03 36
       2.3003092e-06 6.7496608e-06 5.710558e-06 1.9595059e-06
000110 c7 61 e7 35 c5 ca 93 36 73 18 d8 36 4c 82 69 37
       1.7239298e-06 4.404547e-06 6.440148e-06 1.3918219e-05

exp_avg f4 [4]
000000 aa 01 3c 2d 14 2f 06 ab e8 e4 35 10 e5 d6 18 2b
       1.0686932e-11 -4.76717e-13 3.58723e-29 5.4299474e-13

exp_avg_sq f4 [4]
000000 98 0d d6 21 ea ea cf 20 c2 1b a7 20 de d9 ce 1f
       1.4504802e-18 3.5222617e-19 2.830927e-19 8.7604825e-20

exp_avg f4 [4]
000000 53 d6 34 38 19 47 b9 38 37 71 8d 9e e1 02 46 39
       4.311495e-05 8.8347304e-05 -1.497578e-20 0.00018883824

exp_avg_sq f4 [4]
000000 76 69 cf 37 94 52 61 37 69 63 ec 36 bf 96 09 37
       2.4725432e-05 1.3430272e-05 7.044921e-06 8.200935e-06

exp_avg f4 [4]
000000 94 34 00 b7 c9 bd 39 b6 0d 34 84 1b 84 cf 58 35
       -7.641636e-06 -2.7677618e-06 2.1871205e-22 8.0768245e-07

exp_avg_sq f4 [4]
000000 3b c8 35 33 95 b2 95 32 7b a6 7a 32 0f 36 95 32
       4.2324455e-08 1.7427093e-08 1.45897685e-08 1.7370466e-08

exp_avg f4 [2, 4, 3, 3]
000000 04 0a 8f 26 e0 1c 38 27 18 30 27 27 c4 c8 9f 26
       9.925333e-16 2.5550783e-15 2.3201977e-15 1.1087259e-15
000010 bf e5 5e 28 6a d8 93 26 b5 60 51 26 a0 17 99 26
       1.2373294e-14 1.0258833e-15 7.2642504e-16 1.0622911e-15
000020 bc 22 7c 27 0d d8 a4 25 ea 4a 04 26 ff fc 0e 26
       3.4990855e-15 2.8595867e-16 4.5898227e-16 4.960902e-16
000030 21 93 af 25 a9 88 b1 25 05 29 b2 25 dc 38 df 25
       3.045736e-16 3.079721e-16 3.0905874e-16 3.8722863e-16
000040 03 bf a9 25 96 53 75 26 b0 9c 07 27 6e ef c3 26
       2.944626e-16 8.511473e-16 1.8819954e-15 1.3595741e-15
000050 f5 6c 07 27 c8 05 e7 26 37 93 0d 27 4a 65 ea 26
       1.879408e-15 1.6030412e-15 1.9647486e-15 1.6264466e-15
000060 5d c3 05 27 b8 be d7 26 b5 37 0d 27 23 2b 1f 26
       1.8563364e-15 1.4970316e-15 1.959788e-15 5.522267e-16
000070 0e 49 4a 25 44 a2 c0 24 ee 60 ca 26 da 97 3d 25
       1.7545459e-16 8.3541616e-17 1.4042839e-15 1.6444586e-16
000080 cd 30 bd 24 b3 fb 88 25 73 03 48 26 25 6a 14 25
       8.2048356e-17 2.3762797e-16 6.9393614e-16 1.2872917e-16
000090 09 fd 82 b6 e1 b8 2e b7 fa 42 02 39 ca 5c b8 38
       -3.903759e-06 -1.0414254e-05 0.00012422717 8.791087e-05
0000a0 8f a1 49 b8 74 64 1c b9 69 f4 9c b8 98 36 96 b8
       -4.8072598e-05 -0.00014914741 -7.4841846e-05 -7.162726e-05
0000b0 46 69 84 b8 be ef cd 37 93 3b cc 36 cb f7 1f 38
       -6.313859e-05 2.4549543e-05 6.086609e-06 3.813933e-05
0000c0 c2 e1 8f b8 16 10 67 b7 0e d8 8d b7 17 ad 00 38
       -6.860822e-05 -1.3772418e-05 -1.6909118e-05 3.067878e-05
0000d0 dc 38 8c 36 f3 88 a5 37 f4 a1 b4 37 94 ca ee b7
       4.1789444e-06 1.9733305e-05 2.1533087e-05 -2.8466144e-05
0000e0 05 7b 46 b8 29 81 48 b8 87 10 0c b8 e7 42 c9 b7
       -4.732145e-05 -4.7804006e-05 -3.3393993e-05 -2.3992221e-05
0000f0 22 de dc 37 26 9b a0 36 ae 78 30 b8 35 3f a8 37
       2.6329482e-05 4.7864332e-06 -4.207406e-05 2.0056594e-05
000100 d2 33 08 38 72 35 56 38 c3 83 d7 36 03 11 d7 35
       3.247319e-05 5.107135e-05 6.4228384e-06 1.6023699e-06
000110 9d 22 ec 35 55 df ee 36 1a 11 08 b7 6d 2d 95 37
       1.7593444e-06 7.118952e-06 -8.1102135e-06 1.7783337e-05

exp_avg_sq f4 [2, 4, 3, 3]
000000 b3 fa 27 36 34 23 ed 35 73 1f d6 36 11 61 eb 35
       2.5030865e-06 1.7668121e-06 6.381358e-06 1.7537114e-06
000010 21 20 bc 37 8d 6f 83 37 65 ec ac 34 11 62 a1 35
       2.2426308e-05 1.5668362e-05 3.2209496e-07 1.2023976e-06
000020 04 46 39 37 3d 66 cd 36 fe 9a 49 35 db be 0f 38
       1.1043161e-05 6.121378e-06 7.510388e-07 3.4271605e-05
000030 a1 1d 9c 35 c0 cb a0 36 1f 6a 4d 37 df 47 5a 36
       1.1631529e-06 4.792091e-06 1.224366e-05 3.2526366e-06
000040 ae cd c0 36 71 7f 5f 36 69 28 e5 36 e2 23 24 35
       5.74599e-06 3.330377e-06 6.829436e-06 6.114698e-07
000050 b4 96 98 36 34 90 f1 36 04 f2 49 36 13 34 cf 35
       4.547497e-06 7.199147e-06 3.0092206e-06 1.5437857e-06
000060 b0 41 60 36 1d 77 cc 36 ab 85 47 37 98 bd 86 36
       3.3416836e-06 6.0935404e-06 1.1892446e-05 4.015583e-06
000070 98 2b 10 37 6f e9 84 36 3e e6 4c 36 b0 c2 85 35
       8.593219e-06 3.961082e-06 3.0532387e-06 9.965934e-07
000080 2a ce 7d 37 63 63 5e 35 80 1f 22 36 28 09 18 36
       1.5127976e-05 8.284607e-07 2.4158217e-06 2.2655095e-06
000090 46 8a 3d 38 e0 68 58 37 b3 6e 63 37 d0 18 66 37
       4.518989e-05 1.2899021e-05 1.35560285e-05 1.3714845e-05
0000a0 7b 4d cf 36 6f 1b 36 37 f1 74 1d 37 00 44 56 37
       6.1781006e-06 1.0854433e-05 9.385157e-06 1.27712265e-05
0000b0 78 07 c5 36 23 34 b5 37 28 07 cc 37 1c e2 f6 37
       5.871927e-06 2.160116e-05 2.4322027e-05 2.9430776e-05
0000c0 8e 0d 8d 37 bf 80 60 37 5a 4f 21 37 f6 b6 81 37
       1.6814822e-05 1.33814165e-05 9.614823e-06 1.5463196e-05
0000d0 d3 d0 8e 37 26 f9 d2 36 84 42 9c 37 75 a6 e1 38
       1.702496e-05 6.2874924e-06 1.8627623e-05 0.00010759841
0000e0 95 44 13 38 24 6c c7 36 1f 3b c6 35 79 13 84 36
       3.5111403e-05 5.9432514e-06 1.4769356e-06 3.9361735e-06
0000f0 26 18 16 37 f4 c9 f4 36 89 f8 8f 37 40 83 cf 36
       8.946319e-06 7.295277e-06 1.7162662e-05 6.1843602e-06
000100 19 a2 d3 36 21 c1 ec 36 c1 a0 85 37 13 a1 e2 35
       6.3071607e-06 7.0558312e-06 1.5929692e-05 1.6885191e-06
000110 62 55 01 35 8c b5 ea 36 2d ec e4 34 da 19 e9 35
       4.8180493e-07 6.9948783e-06 4.264015e-07 1.7367377e-06

exp_avg f4 [2]
000000 34 f9 5b 99 41 9c 9a 2d
       -1.1372361e-23 1.7577164e-11

exp_avg_sq f4 [2]
000000 c5 c9 2b 1f 0b 85 39 20
       3.6377558e-20 1.571413e-19

exp_avg f4 [2]
000000 84 2b 8b 2b 21 b1 79 b5
       9.888622e-13 -9.3017485e-07

exp_avg_sq f4 [2]
000000 64 14 fd 35 91 5d cb 35
       1.8855903e-06 1.515191e-06

exp_avg f4 [2]
000000 ff 1e 62 28 8f 62 c8 35
       1.2552241e-14 1.4929846e-06

exp_avg_sq f4 [2]
000000 10 69 e4 31 fd e1 d2 31
       6.6476176e-09 6.1374963e-09

exp_avg f4 [2, 2, 3, 3]
000000 72 13 26 21 32 32 c2 20 68 20 89 20 08 70 a8 21
       5.6268723e-19 3.2898095e-19 2.3230147e-19 1.1413777e-18
000010 a4 5c e4 21 b4 95 b0 20 f0 61 82 a5 51 46 49 25
       1.5474403e-18 2.9914625e-19 -2.261777e-16 1.7457795e-16
000020 5e f6 10 25 c1 e1 04 38 cb 4c db 37 b5 61 37 b8
       1.2573481e-16 3.1681502e-05 2.6142594e-05 -4.3721597e-05
000030 b0 b7 58 b8 14 fb a7 37 e8 2e cd 37 02 29 53 37
       -5.1669485e-05 2.0024869e-05 2.4459747e-05 1.2586128e-05
000040 a7 8c a6 b7 0f 51 68 38 d9 5b b3 1f 08 30 e4 1f
       -1.9854238e-05 5.5388602e-05 7.59614e-20 9.664122e-20
000050 a1 0e 5d 1f ca 45 02 20 9e 5b 07 20 8d ce 90 20
       4.681067e-20 1.103452e-19 1.1465258e-19 2.4531233e-19
000060 97 e1 b8 a3 ec 30 16 a4 a8 85 34 24 bb 36 67 b9
       -2.0044861e-17 -3.2567504e-17 3.914449e-17 -0.00022050265
000070 ee 38 e6 38 f3 16 4c b9 91 be 10 39 35 03 ba 38
       0.000109778586 -0.00019463505 0.00013803902 8.8697685e-05
000080 67 72 33 39 8b da cd b7 7c 8b b1 36 7f 1b 41 b9
       0.00017113388 -2.4539671e-05 5.291249e-06 -0.00018416157

exp_avg_sq f4 [2, 2, 3, 3]
000000 e7 82 18 36 f9 e7 d4 36 56 89 96 36 a1 44 8b 34
       2.272596e-06 6.3450975e-06 4.4863364e-06 2.5940702e-07
000010 98 60 11 36 6a 1b be 34 09 40 73 34 05 3f d1 34
       2.1662909e-06 3.5410204e-07 2.2654434e-07 3.8975136e-07
000020 ad 35 55 35 25 43 d6 37 20 f1 e3 37 58 c5 87 37
       7.942679e-07 2.5542055e-05 2.7172791e-05 1.618515e-05
000030 1f 98 30 38 6f 18 8d 37 06 aa 10 38 72 99 e8 37
       4.2103344e-05 1.6819888e-05 3.4490622e-05 2.7728009e-05
000040 c7 63 12 38 63 13 d0 37 d9 af a2 36 c6 8b a4 37
       3.4902037e-05 2.480456e-05 4.8484476e-06 1.961541e-05
000050 ce 19 89 37 d1 bf 46 36 29 e2 1b 37 e8 17 8e 35
       1.6343689e-05 2.961595e-06 9.291377e-06 1.0586782e-06
000060 0a db 20 35 1c c6 e7 34 bc 65 77 34 ad e0 f3 37
       5.992339e-07 4.3171246e-07 2.3040678e-07 2.907248e-05
000070 14 89 9b 37 9e cc 10 39 37 a4 f4 36 ea c1 60 38
       1.8541272e-05 0.00013809136 7.290884e-06 5.358636e-05
000080 13 28 56 37 fd 03 d8 37 4e 7f 44 37 8f 57 45 37
       1.27647245e-05 2.5751064e-05 1.1712151e-05 1.1762501e-05

exp_avg f4 [2]
000000 c4 5f b1 ad 60 06 f4 2d
       -2.0165099e-11 2.774242e-11

exp_avg_sq f4 [2]
000000 a8 3b 1e 25 c1 a0 2a 26
       1.3724528e-16 5.919846e-16

exp_avg f4 [2]
000000 38 0a 7d be 9e f7 cd be
       -0.2471093 -0.4022798

exp_avg_sq f4 [2]
000000 56 8e 09 42 12 f8 01 42
       34.389 32.492256

exp_avg f4 [2]
000000 c1 a4 aa ba 42 2a 16 3b
       -0.0013019071 0.0022913371

exp_avg_sq f4 [2]
000000 c2 45 0e 42 5c 2e 38 42
       35.568123 46.045273

inlayer.double_conv.0.0.weight f4 [2, 4, 3, 3]
000000 d6 1e 0c be 6a 0b 18 bf d5 3b 08 3f 37 5f 00 bf
       -0.13683638 -0.59392416 0.53216296 -0.50145286
000010 e3 f5 b4 3e d0 63 ac 3e 03 28 18 bf a9 ba 14 3d
       0.35343847 0.336699 -0.59436053 0.036310825
000020 4d 12 ee 3e 00 eb 25 3e d4 7d fd 3e 27 dc b3 be
       0.46498337 0.16202927 0.49510062 -0.351289
000030 f1 cb 98 3e da 77 49 bf 87 f4 fc be ec 74 0f 40
       0.29843095 -0.78698504 -0.4940531 2.2415113
000040 6d 23 09 bf 4d 79 40 bf 00 90 f2 bd 07 ac 53 3f
       -0.5356968 -0.7518509 -0.11843872 0.8268437
000050 d7 ec 8f be 1d 58 bd be fb 66 a0 bf 90 29 1e 3f
       -0.28110382 -0.36981288 -1.2531427 0.6178217
000060 1c c7 f5 3e 9d 57 1b 3f e8 70 5f bf 82 44 ab bf
       0.4800347 0.6068056 -0.87281656 -1.3380282
000070 ee 8f 61 3f a3 98 0b bf 13 4f de 3e db 36 7c bf
       0.88110244 -0.5452978 0.43419704 -0.985212
000080 e1 e4 d3 bc 44 96 9a bc 6e fb b7 3e a6 25 2a bf
       -0.025865974 -0.01887048 0.35934013 -0.66463697
000090 8d 7b 9b 3e a4 cf 02 3f 4c 86 6c bf 3b 98 b8 be
       0.303677 0.51098084 -0.9239242 -0.36053643
0000a0 f7 30 e3 bc 76 00 9e bf 61 65 63 3f f1 3e a2 3f
       -0.02773331 -1.2343891 0.88826567 1.2675458
0000b0 e6 be fc be 7f 9d 9f bf 81 3d 80 3f 3d 3b 45 bf
       -0.49364394 -1.2469939 1.001877 -0.77043515
0000c0 27 ee 95 3f 2d a9 8c bf 9c 97 44 3f d9 69 5b bf
       1.1713303 -1.0989128 0.7679384 -0.85708386
0000d0 c0 71 07 40 cd e4 f0 39 5e 8a 93 bf ed b2 2e 3f
       2.1163177 0.00045946837 -1.1526601 0.6824177
0000e0 82 a1 85 3f 1e 39 de be 1f fc 1d 3f 3f 2d 1f bd
       1.0439913 -0.43402952 0.6171283 -0.03886151
0000f0 25 78 f7 bf eb 85 b4 3f b4 9f 3e 3f 10 b3 18 3f
       -1.933354 1.4103369 0.7446244 0.5964823
000100 8c 09 2e bf 01 91 a7 bf 83 57 b4 3e 3e 01 55 3f
       -0.6798332 -1.3091127 0.35223016 0.8320502
000110 52 5d 0b 3e cd f8 67 3e 87 55 d0 bd 4c 20 01 bc
       0.13609818 0.22653504 -0.10172563 -0.007881235

inlayer.double_conv.0.0.bias f4 [2]
000000 09 be 9a bc db 05 0b c0
       -0.018889444 -2.1722324

inlayer.double_conv.0.1.weight f4 [2]
000000 7b 54 fd 3e a1 9f 09 40
       0.49478516 2.150368

inlayer.double_conv.0.1.bias f4 [2]
000000 37 0e 40 bf 19 cd 37 3f
       -0.7502169 0.7179733

inlayer.double_conv.0.1.running_mean f4 [2]
000000 37 9e 9a bc c2 f6 09 c0
       -0.01887427 -2.155686

inlayer.double_conv.0.1.running_var f4 [2]
000000 14 d5 75 41 f7 b6 cb 41
       15.364521 25.464338

inlayer.double_conv.1.0.weight f4 [4, 2, 3, 3]
000000 ab a1 ca 3e ce c0 91 bf 28 f7 68 3d 9a bc a0 3e
       0.39576468 -1.1386964 0.05687633 0.31393892
000010 77 c8 3e bf 2d 58 45 3f 01 c5 4e be 59 ae 7f bf
       -0.74524635 0.7708767 -0.20192339 -0.9987541
000020 41 33 08 bf e3 dd 60 bf 6d c8 d1 3f 2f 31 68 bf
       -0.5320321 -0.8783857 1.638929 -0.9070005
000030 cb 29 c4 be 5e b3 da 3e 70 43 1b bf ff 3b 9a bf
       -0.38313136 0.4271497 -0.60649776 -1.2049559
000040 76 ce 8b 3f 9a d7 0d bf 06 be a3 3f cb be d2 3f
       1.0922382 -0.55407107 1.2792366 1.6464475
000050 b3 1c 23 bf fa 39 be 3e a4 a0 71 3f ff ca 8c 3e
       -0.63715667 0.37153608 0.94385743 0.27498624
000060 c3 fb 65 bd 7d d1 2b be 94 a1 ff 3e d7 d1 65 3f
       -0.0561483 -0.16779132 0.49927962 0.89773315
000070 74 89 b0 be 2b 7f 22 3f 2b ba 1f 3f 52 ae 34 bf
       -0.34479868 0.6347529 0.62393445 -0.7057849
000080 d1 8d 8c 38 d9 b4 21 3e b9 3a 98 3f 96 08 07 3e
       6.7021356e-05 0.15791644 1.1892921 0.13186869
000090 a4 8e 7e bf db 4f 3c 3f 91 c1 33 bf bf 8b 1c bf
       -0.994364 0.7355935 -0.70217234 -0.61150736
0000a0 f0 92 2d bf 35 2d 2a bf 62 1c 35 bf 85 84 7f bf
       -0.67802334 -0.6647523 -0.70746434 -0.99811584
0000b0 94 56 ac be 29 fb 11 be 99 25 89 bf 55 55 28 3f
       -0.33659804 -0.14255966 -1.0714599 0.65755206
0000c0 ba 56 02 bf 24 3e 5b be 12 81 1b 3f b2 d7 c4 be
       -0.50913584 -0.21410424 0.6074382 -0.38445812
0000d0 9e ba 3f be f9 12 39 bf b5 90 16 bf d0 3e 04 bf
       -0.18723533 -0.72294575 -0.58814555 -0.51658344
0000e0 a6 d7 3f bf 47 31 3e bf be c4 8c bd b1 25 4a bc
       -0.7493843 -0.7429394 -0.06873463 -0.012338088
0000f0 94 2a 0c bf ea 35 af be bb 47 57 3f e9 ae 29 be
       -0.5475247 -0.3422082 0.84093827 -0.16570629
000100 5b 37 aa bf a7 1a a0 3f 0b 42 36 bf 2a 65 d8 be
       -1.3298143 1.2508134 -0.71194524 -0.42264682
000110 9f 06 3a 3e cf 0a 8f be b4 3c 61 3e 46 c7 2a bf
       0.18166588 -0.27937934 0.21995813 -0.6671032

inlayer.double_conv.1.0.bias f4 [4]
000000 4c 11 2c bf 44 1a cd be 2d e7 e3 3d 0f c2 ed 3d
       -0.6721389 -0.40059102 0.11128078 0.11609279

inlayer.double_conv.1.1.weight f4 [4]
000000 ca dd fb 3f b2 3c 08 be df 9c 06 3b 5d 15 1d 3f
       1.967706 -0.13304403 0.002054028 0.6136072

inlayer.double_conv.1.1.bias f4 [4]
000000 59 c1 36 3d 71 7d 0e c0 a0 38 a7 bf e5 8f ac 3e
       0.044617984 -2.2264063 -1.3064156 0.33703533

inlayer.double_conv.1.1.running_mean f4 [4]
000000 8d 3d e5 bf 84 80 d6 3f 5f 30 bd bf 35 82 a7 bf
       -1.7909409 1.675797 -1.4780387 -1.3086611

inlayer.double_conv.1.1.running_var f4 [4]
000000 c9 10 93 41 a6 cd 3d 41 45 55 22 41 66 8c 37 41
       18.383196 11.862707 10.145818 11.471777

outlayer.double_conv.0.0.weight f4 [2, 4, 3, 3]
000000 ab 7c 27 bf 24 d8 35 bf b0 f8 e7 be b7 72 34 bf
       -0.65424603 -0.7103293 -0.4530692 -0.7048754
000010 f5 b7 09 3f 8a f8 e5 be ed a1 88 be a6 81 94 be
       0.5379632 -0.44916183 -0.2668604 -0.29005164
000020 c4 b1 62 3f fc 24 3b bf e8 a4 10 3f cf 69 40 bf
       0.885525 -0.7310331 0.56501627 -0.7516145
000030 2e 8f 6a bf be 42 4f 3e 2b a7 1a bf f8 1a 6d 3d
       -0.91624725 0.20240304 -0.6041133 0.057887048
000040 ca 2f 53 be 9d d1 29 bf 9e 5a 4a bf c1 52 a8 be
       -0.20623699 -0.6633547 -0.7904452 -0.32875636
000050 dd 1b 17 be 36 2c 23 3f d2 dc 41 bf 85 46 54 bf
       -0.14756723 0.63739336 -0.7572757 -0.82920104
000060 f8 8c 0d 3f 0c 3e 2b 3f 29 5d 3f bf f4 de 4f 3f
       0.55293226 0.6689155 -0.74751526 0.81199574
000070 43 a2 0a bf f5 d7 31 3f d3 b7 3c 3f 74 60 59 bf
       -0.5415384 0.6947015 0.73717993 -0.849128
000080 87 2c 00 3f e1 cd 78 bf 4a bd 85 bf 3c de 3a bf
       0.50067943 -0.97189146 -1.0448391 -0.7299535
000090 9a 81 98 3f e6 4d 6a 3e 92 98 01 3f 05 f3 11 3e
       1.1914551 0.22881278 0.5062343 0.14252861
0000a0 93 ab 10 bf 7a b4 f3 bf 75 0b a9 3f b8 e1 c6 3f
       -0.565118 -1.9039452 1.3206621 1.5537634
0000b0 f4 64 70 3f 18 36 49 3f 97 6a 12 3f 5c 9b b2 3e
       0.9390404 0.78598166 0.57193893 0.34884155
0000c0 ec ce 32 3f e2 21 1b bf e2 26 9c be 11 60 4e be
       0.6984699 -0.60598576 -0.30498415 -0.20153834
0000d0 fa 62 1b 3e 73 26 ab be ba 55 7e 3f 8f 3d 2c 3f
       0.15174475 -0.33427772 0.9934956 0.6728143
0000e0 9c 60 8b 3f f0 98 a8 3f 9e 0e b0 3f fb e4 7f 3f
       1.0888858 1.3171673 1.3754461 0.9995877
0000f0 e6 55 fb 3e 4e d0 a3 3f 96 a7 06 3f 73 77 87 3f
       0.49088973 1.2797945 0.52599466 1.0583328
000100 67 8b 54 3f c4 7c 82 be 9e ae 32 be 4a a3 d0 3c
       0.8302521 -0.25485814 -0.17449424 0.025468487
000110 10 16 d4 3f 5d 9e 3e 3e 6b 1c 06 bf c9 7c 02 3f
       1.6569233 0.18615098 -0.5238711 0.5097166

outlayer.double_conv.0.0.bias f4 [2]
000000 f2 db 9b 3d 5d 69 0a be
       0.076103106 -0.13516755

outlayer.double_conv.0.1.weight f4 [2]
000000 1a 6c d6 3b 86 08 eb 3f
       0.0065436484 1.8361976

outlayer.double_conv.0.1.bias f4 [2]
000000 d8 0d fd be a0 38 98 3f
       -0.49424624 1.189228

outlayer.double_conv.0.1.running_mean f4 [2]
000000 67 a2 ef bf 7d 82 78 40
       -1.8721436 3.8829644

outlayer.double_conv.0.1.running_var f4 [2]
000000 ba 09 85 41 9b 8f e5 42
       16.62975 114.78048

outlayer.double_conv.1.0.weight f4 [2, 2, 3, 3]
000000 02 64 dd 3e 15 30 ba be 63 be cc be d1 bb 6a be
       0.43240362 -0.3636481 -0.39989004 -0.22923209
000010 02 0d 80 be 56 a7 bf 3e 32 a1 11 bf 2f 19 13 3f
       -0.25009924 0.37432355 -0.5688659 0.574603
000020 12 5f 46 3e 56 39 b3 bf c8 d3 a3 be 78 fd 7c bf
       0.19372204 -1.4001873 -0.31997514 -0.9882426
000030 0e d0 c5 be 1d 6c 18 3f 69 92 32 3f 0d 17 42 bf
       -0.38635296 0.5953997 0.69754654 -0.7581642
000040 17 16 c7 bf 79 d6 99 bf bc 4c 0c 3f 63 7a b9 be
       -1.5553616 -1.2018577 0.5480459 -0.36226186
000050 3b 0f 4e bf 6c 8f c9 be 10 f6 11 bf 61 92 50 3e
       -0.8049199 -0.39367235 -0.57016087 0.20368339
000060 6f 04 ad be 70 41 97 3d e6 47 92 3e e7 17 e9 be
       -0.33792445 0.07385528 0.2857048 -0.4552605
000070 de c0 8a bf e6 0b 62 bf 9a 1a 67 bf 4c 84 69 be
       -1.0840108 -0.88299406 -0.90274966 -0.22804374
000080 dd 51 4b bf 02 44 9d 3e 5e 76 4b bf b4 ca 19 bf
       -0.7942179 0.30715948 -0.7947749 -0.60074925

outlayer.double_conv.1.0.bias f4 [2]
000000 56 44 0e 3f 6d 21 a3 bf
       0.5557302 -1.2744576

outlayer.double_conv.1.1.weight f4 [2]
000000 57 4c 85 3c a9 da ee 3c
       0.016271753 0.029157

outlayer.double_conv.1.1.bias f4 [2]
000000 1c e2 60 38 98 1c dc b8
       5.3616342e-05 -0.000104957435

outlayer.double_conv.1.1.running_mean f4 [2]
000000 aa 30 bd c0 de 85 fc c0
       -5.9121904 -7.891341

outlayer.double_conv.1.1.running_var f4 [2]
000000 5a ca ac 42 1d 50 b0 42
       86.39522 88.15647
