single_point_model2d.pt (torch, 22859 bytes, 45 tensors)

exp_avg f4 [2, 2, 3, 3]
00000000: 9430 cbbb 4319 edbb 6871 84bd 21e3 f3bc
00000010: a437 0abc dcb9 fcbb 9a10 c5bc 5601 07bc
00000020: 7d89 09bc a3a2 26bd c1d2 aabd c396 73bc
00000030: 8e73 e03d 3f88 e43d 428b f73c a899 013b
00000040: 5b19 043e 87b0 1b3e 3ecc 54b9 4867 1bbe
00000050: 7e7b dabe 98f8 53b9 2420 b8be 0d20 13bf
00000060: eb4d 6bbd 8eca a9be 4ede f0be 8af7 fe3e
00000070: d3a2 54bf 0bff 92bf 3fb4 193f 56a3 cebe
00000080: 0067 12bf 362c 153f 4bf3 8a3f d47c 813e
-0.0062008593 -0.0072356774 -0.06466943 -0.02977139 -0.008436117 -0.007712586 -0.024055768 -0.008240065
-0.008394596 -0.040682446 -0.08340979 -0.014867487 0.1095954 0.111587994 0.03021777 0.0019775424
0.12900297 0.15204059 -0.00020293982 -0.15176117 -0.42672342 -0.00020215136 -0.3596202 -0.5747078
-0.057447355 -0.3316235 -0.47044605 0.49798232 -0.8306095 -1.1484083 0.6004066 -0.4035899
-0.57188416 0.58270586 1.0855497 0.2529055

exp_avg_sq f4 [2, 2, 3, 3]
00000000: edfe 454d bf8a 2e4b 82b7 314d 8e65 3348
00000010: cb1c 3c4c 2ed5 474a 7cf2 2f45 d2aa 9c48
00000020: 451f ee4c be29 d24c 159f fa4b 288d 2f4c
00000030: c58c 8a49 09b1 9d4a eb2d 2948 7bc1 0d4c
00000040: b77a 154a 593b 664a 37f6 9045 1623 5649
00000050: 1482 974c 4194 2f45 2505 3c4a 930c 444d
00000060: 40e5 e944 5353 9549 e330 2f4a ac55 c449
00000070: 93c2 a64d f639 b948 43f9 b14a fc61 774d
00000080: 834e ee4c 4665 354a fc0a 0f4a 4173 314d
2.0761365e+08 1.1438783e+07 1.863496e+08 183702.22 4.9312556e+07 3.2740595e+06 2815.1553 320854.56
1.24844584e+08 1.1018597e+08 3.284945e+07 4.6019744e+07 1.1350006e+06 5.1672365e+06 173239.67 3.7160428e+07
2.4490698e+06 3.7721182e+06 4638.777 877105.4 7.943389e+07 2809.2659 3.0805212e+06 2.055724e+08
1871.1641 1.2232744e+06 2.8703288e+06 1.6083735e+06 3.4972118e+08 379343.7 5.8318415e+06 2.5939962e+08
1.24941336e+08 2.9719855e+06 2.343615e+06 1.8607003e+08

exp_avg f4 [2]
00000000: 54e9 a0b7 85c2 deb5
-1.9182138e-05 -1.6596902e-06

exp_avg_sq f4 [2]
00000000: 7ae3 803b 7e32 b738
0.0039333673 8.735525e-05

exp_avg f4 [2]
00000000: 41d8 9cbf e9f4 05bb
-1.2253495 -0.0020440167

exp_avg_sq f4 [2]
00000000: 589e 5347 bfcb 0049
54174.344 527547.94

exp_avg f4 [2]
00000000: f91f ac3d 0bdd 10be
0.08404536 -0.14146821

exp_avg_sq f4 [2]
00000000: e6b3 4048 2363 c845
197327.6 6412.392

exp_avg f4 [4, 2, 3, 3]
00000000: dd10 f83c 77c9 363c 8605 64bd b2f0 edbc
00000010: bbfa e8bb 354c 183c 43e9 f5bc 7eb6 e73c
00000020: 4908 693d 3a42 e3bd b9dd 1b3c 8fc5 83be
00000030: 1eb0 b4be 8b93 68bd a71f a23e 1245 e3be
00000040: cf6b b83d 3b7f 203e 86a6 983d bab8 1a3e
00000050: 6774 ce3d b33f d13d 2d85 c83c f629 78bd
00000060: f775 6b3d 7680 88bd 4132 c6bd 01ec a33f
00000070: 27eb 323f 520e c7bc cd30 453f 528c ec3d
00000080: 3ad0 c1be 527b 1f3f 68f8 e2be fbbc 22bf
00000090: 5bac efbc a033 20bc f8af ddbb 9a7d 11bb
000000a0: ad47 7fbb 377c 1eb9 abeb 35ba 9e33 41bc
000000b0: 0af7 edbb c998 35be 64b9 74bd cc4a 58bd
000000c0: 99a9 c3bd 176a 9ebd 8e6a 8abd 2319 8ebd
000000d0: aeeb 54bd 8964 bcbd ebde b43b 60a5 b13b
000000e0: b2b5 ddbc 2e85 cabd 8be9 d2bc 0308 263d
000000f0: 90f9 09bd 4cc2 63bc 2be1 1b3c 73a4 52be
00000100: 6976 94bd 884c b33d 4d01 b3be b8d1 81bd
00000110: 3bf1 383e 6ea2 31bd fd87 4e3e 0c70 183e
0.030281479 0.011156431 -0.05566933 -0.029045437 -0.0071099675 0.009295513 -0.030018454 0.028285261
0.056892667 -0.11096616 0.009513312 -0.25736663 -0.35290617 -0.056781333 0.31664774 -0.44388634
0.09004938 0.15673535 0.07453637 0.1510953 0.10080796 0.10217228 0.024477566 -0.060586892
0.057485547 -0.06665127 -0.09677554 1.2806398 0.69890064 -0.02429882 0.7702759 0.115502015
-0.37854177 0.62297547 -0.44330144 -0.6356961 -0.02925699 -0.009777933 -0.006765362 -0.0022200109
-0.0038952634 -0.00015114328 -0.00069397193 -0.011792092 -0.0072621154 -0.17734064 -0.059747115 -0.052805707
-0.095538326 -0.07735079 -0.06758605 -0.06938388 -0.051982574 -0.09198863 0.005519738 0.0054213256
-0.027064178 -0.09888683 -0.025746128 0.040534984 -0.033685267 -0.013901304 0.009514133 -0.20570545
-0.072491474 0.087548316 -0.3496193 -0.06338829 0.18060772 -0.043367796 0.20169063 0.14886492

exp_avg_sq f4 [4, 2, 3, 3]
00000000: bda0 234a 46c1 5b4a d0d4 1e4c f12a 304c
00000010: 96c5 c24c b6aa 9a4d 9cec 1e4c 9910 f14b
00000020: 2eee 564b a18f c34b 60e2 224d f3b6 7d4c
00000030: 4d10 5d49 65fc 434d 0721 684d 6ff1 3e4b
00000040: 3cb2 594c bba9 c94c bf36 ab4d de89 294c
00000050: 8954 dd4a 83cf 334d d3bb 464d 8122 4b4b
00000060: 2291 3448 fc6b 744b 5ef2 e64a 805a 8f49
00000070: a66d 2d49 d55c 0a48 8911 0e4c b315 3c4a
00000080: e833 204a a00b c74c 4f15 8c4b 24ea ff4c
00000090: 88e8 c949 7a52 c84b 0a2e 6b4c 841c 594c
000000a0: 9b0a 484b 348f fe4c 5dbd 594b 55a1 fa4b
000000b0: 6d15 234d 67bc 174c ea1b e945 1df7 bf49
000000c0: f2e2 2e4c d831 b647 bff2 204c bfd3 eb4b
000000d0: e86f 194c adcc 544d 9156 554b daa2 364d
000000e0: 1dfa 764c d5ff fa48 c0de 404a a896 5f4b
000000f0: 4acd 3d4c e813 b74a 1e85 404b 16f4 b447
00000100: 73a8 7f48 6e02 664b 3abd 744b ff7c 9f4a
00000110: 8ca5 ac4a 8822 874b 3ebc 2a4a e485 1d44
2.6808792e+06 3.6004655e+06 4.163667e+07 4.6181316e+07 1.0211653e+08 3.2435987e+08 4.166104e+07 3.159685e+07
1.4085678e+07 2.5632578e+07 1.7079654e+08 6.6509772e+07 905476.8 2.0550613e+08 2.4340491e+08 1.2513647e+07
5.706776e+07 1.05729496e+08 3.5906147e+08 4.444351e+07 7.2525485e+06 1.8854507e+08 2.0838738e+08 1.3312641e+07
184900.53 1.6018428e+07 7.567663e+06 1.174352e+06 710362.4 141683.33 3.7242404e+07 3.0815808e+06
2.624762e+06 1.0435712e+08 1.836099e+07 1.3417296e+08 1.654033e+06 2.6256628e+07 6.1650984e+07 5.691445e+07
1.3109915e+07 1.3346243e+08 1.4269789e+07 3.2850602e+07 1.7100565e+08 3.9776668e+07 7459.4893 1.5725796e+06
4.584545e+07 93283.69 4.2191612e+07 3.0910334e+07 4.0222624e+07 2.2313646e+08 1.3981329e+07 1.9150787e+08
6.474354e+07 514046.66 3.159984e+06 1.4653096e+07 4.975543e+07 5.999092e+06 1.261699e+07 92648.17
261793.8 1.5073902e+07 1.6039226e+07 5.2261115e+06 5.657286e+06 1.77124e+07 2.7973275e+06 630.09204

exp_avg f4 [4]
00000000: f84e 1833 c8ca 7933 e3ad 5fb1 bac2 a0b2
3.546208e-08 5.815926e-08 -3.2549614e-09 -1.8715003e-08

exp_avg_sq f4 [4]
00000000: 8d1b 6034 68ef da35 1565 1e37 dd54 f435
2.0871649e-07 1.6311942e-06 9.441069e-06 1.8204115e-06

exp_avg f4 [4]
00000000: 6fdd 2140 d1a1 0340 19c9 73bf fbf9 fbbf
2.5291402 2.0567515 -0.95228726 -1.9685663

exp_avg_sq f4 [4]
00000000: 0a40 e84b 3e26 a64b 65d0 c64a e68c 984a
3.0441492e+07 2.1777532e+07 6.5147385e+06 4.998771e+06

exp_avg f4 [4]
00000000: 33b4 0dba f4ea f3bb 5def 243d a405 01bd
-0.0005405575 -0.00744378 0.040267337 -0.03149952

exp_avg_sq f4 [4]
00000000: 3636 3442 2060 0747 ba9d 1347 3c87 c445
45.05294 34656.125 37789.727 6288.9043

exp_avg f4 [2, 4, 3, 3]
00000000: d2dc 033c ea3d 923d 66e4 4d3d 67d3 9bbd
00000010: 4d19 8c3d 2ee0 f83b f7a9 30be 6009 d23c
00000020: 914a 073d 3ac5 603e 36b2 353d b04d 75be
00000030: c2a2 7b3e 29d1 9c3e cea6 863d f43a 703e
00000040: e541 a43e 527c f63d 2f7f 0cbe fbd0 c0be
00000050: 766f 2cbf 808d c7bd e2aa 8abe 97a0 0ebf
00000060: a949 edbd c645 81be 12dc 02bf 2aeb b43e
00000070: e4c0 6f3e e012 81be e4c8 d63e bf57 c83e
00000080: c9ff 26bd c593 b43e 9fe9 ba3e f090 e73c
00000090: 733f 493d 331d b1bd be8f 66bd d4d1 e83d
000000a0: 1bb6 a9bd 1999 a1bc 8b0f 7d3e e982 9ebc
000000b0: 74ac 7bbc d627 5bbe d822 a7bd 4e15 a43e
000000c0: 22ea 5fbe 9415 b1be 5287 d2bc 8334 55be
000000d0: b746 b3be b9ba a4bd f871 4a3e c57b df3e
000000e0: 7d18 3d3f 52c3 273e 972b aa3e 3dd0 1f3f
000000f0: 541f 3d3e d90a 9e3e d9ba 103f 1ad5 a7be
00000100: 976e 86be 1c57 773e f5fa bdbe a83d dcbe
00000110: 2ad2 873c 1ca5 8bbe 9126 a9be cb11 ae3c
0.008048253 0.071407154 0.050266646 -0.07608681 0.06840763 0.0075950837 -0.17252336 0.025639236
0.033030096 0.21950236 0.04435941 -0.23955417 0.24573806 0.30628327 0.06574784 0.23459989
0.32081524 0.12035431 -0.13720392 -0.3765944 -0.67357576 -0.09743786 -0.27083498 -0.5571379
-0.11586315 -0.25248545 -0.5111705 0.35335666 0.23413426 -0.25209713 0.41950142 0.39129445
-0.04077128 0.3526899 0.36506364 0.028267354 0.049132776 -0.086481474 -0.056289427 0.113681465
-0.08286687 -0.019726323 0.2471296 -0.019349532 -0.01536094 -0.21401915 -0.08160943 0.32047504
-0.21866658 -0.34586775 -0.025699291 -0.20820813 -0.3501489 -0.08043427 0.19770038 0.43649116
0.7386549 0.16383103 0.3323638 0.6242712 0.18468982 0.3086765 0.56535107 -0.3277977
-0.26256248 0.24154323 -0.37105528 -0.4301579 0.016579706 -0.27274406 -0.33037236 0.021248719

exp_avg_sq f4 [2, 4, 3, 3]
00000000: fa17 a74c 7c7a f048 5e17 3e4b 83b5 cc4b
00000010: f5e7 0c4c df6e b84c fdd7 de47 55ab 544b
00000020: a675 894b 2d61 ea4c b1ac d94b 70ac 894c
00000030: acf6 c84c 2610 aa4d a2fd 7d4c 232b 304c
00000040: 57ca 174c 11b1 224d 984f 844d a9e1 264d
00000050: f595 764a 9b6a 064c 754a 254c 1d7b 094c
00000060: 706a fa4b 17d5 024c 3018 524c 69af f148
00000070: 8968 2e4c b674 dd4c 8b80 df4c 2e46 104d
00000080: d375 124b 2392 0c4c 8ad5 6a4c 7af0 3c4d
00000090: a068 224b 2c47 134c 1fe8 334d f2db 054a
000000a0: 551a 8e4a 3205 c54b 55a4 0c4a b395 0c49
000000b0: 543b 664a 4742 7b4c 74c8 ac4d 3c4e 7e4d
000000c0: 7e9c 0f4c c599 dc4b ee39 324d eb0d 924b
000000d0: 38ca 144c 94c2 1a4c 22f3 9f4b 544f 0f4c
000000e0: ba81 c84b 260a 924b 2cc5 dd4b eec4 174c
000000f0: 2dbc 114c 9c11 e04b 7826 3d4c 580c ba4c
00000100: 8589 524d 4692 224d 5273 254c fbdf 124c
00000110: 5294 f54c 84a9 414c d17d 014b 5353 464b
8.76052e+07 492499.88 1.2457822e+07 2.6831622e+07 3.6937684e+07 9.6696056e+07 114095.98 1.3937493e+07
1.80171e+07 1.2288241e+08 2.8531042e+07 7.218061e+07 1.0536278e+08 3.5664813e+08 6.658215e+07 4.6181516e+07
3.979094e+07 1.7059458e+08 2.774761e+08 1.7498792e+08 4.0400612e+06 3.523646e+07 4.3330004e+07 3.6039796e+07
3.2822496e+07 3.4296924e+07 5.507501e+07 494971.28 4.57201e+07 1.1610667e+08 1.1717948e+08 1.512824e+08
9.598419e+06 3.6849804e+07 6.156036e+07 1.9811728e+08 1.0643616e+07 3.860805e+07 1.8864587e+08 2.1931485e+06
4.6564265e+06 2.5823844e+07 2.3042772e+06 575835.2 3.772117e+06 6.5866012e+07 3.6235226e+08 2.6665875e+08
3.764684e+07 2.891457e+07 1.868838e+08 1.9143638e+07 3.9004384e+07 4.0569424e+07 2.0964932e+07 3.7567824e+07
2.628082e+07 1.9141708e+07 2.9067864e+07 3.97854e+07 3.8203572e+07 2.9369144e+07 4.958461e+07 9.754285e+07
2.2076424e+08 1.7046845e+08 4.337185e+07 3.850238e+07 1.2875432e+08 5.0767376e+07 8.486353e+06 1.2997459e+07

exp_avg f4 [2]
00000000: dc30 6932 4deb 9c34
1.3573494e-08 2.9228468e-07

exp_avg_sq f4 [2]
00000000: c1af 1533 1701 3735
3.4851613e-08 6.81744e-07

exp_avg f4 [2]
00000000: fab8 7941 eecd 6641
15.60766 14.425276

exp_avg_sq f4 [2]
00000000: 8d87 9449 cf14 9449
1.2167536e+06 1.2130819e+06

exp_avg f4 [2]
00000000: cd6b f1be a615 013b
-0.47152558 0.0019696741

exp_avg_sq f4 [2]
00000000: 2bad c147 2a9c 8345
99162.336 4211.5205

exp_avg f4 [1, 2, 3, 3]
00000000: 24af 73bf 074a bdbf fb8d 18c0 0904 73bf
00000010: e012 89bf 2c0b fbbf 9205 77bf 0b2c 72bf
00000020: b3a7 d1bf a402 613f 7f58 d03f fdd7 2f40
00000030: 373c 553f e4ab 813f 7b3f 0b40 a8ae 733f
00000040: 270b 783f 196d fa3f
-0.9518912 -1.4788216 -2.3836658 -0.9492803 -1.0708885 -1.9612784 -0.96492875 -0.94598454
-1.6379303 0.87894654 1.6277007 2.7475579 0.83295006 1.0130582 2.1757495 0.9518838
0.9689202 1.9564544

exp_avg_sq f4 [1, 2, 3, 3]
00000000: e4b8 184e 2699 9f4d 1d4f 934c a2f2 f84b
00000010: dc1f 384d 9f5b 324e 0fb8 7f4c 13f1 c04b
00000020: a130 284c a301 f047 0555 8248 a8dd 3848
00000030: 2c0f 564b c3a1 1e4a 17ea 144c 0e0d 1448
00000040: 3cc0 9e4a 5a94 f049
6.4056346e+08 3.3470176e+08 7.723236e+07 3.2630084e+07 1.9306848e+08 7.4808723e+08 6.7035196e+07 2.5289254e+07
4.4089988e+07 122883.27 266920.16 189302.62 1.4028588e+07 2.5990248e+06 3.903702e+07 151604.22
5.20195e+06 1.9708272e+06

inlayer.double_conv.0.0.weight f4 [2, 2, 3, 3]
00000000: 8449 b140 2e56 ad40 1cb5 aac0 4132 ddc0
00000010: 4a20 a140 4b21 9740 a49c 0f3f 3d83 2540
00000020: dedf a240 57e5 aac0 11d3 b2c0 f290 b940
00000030: eab4 a4c0 d77c a8c0 168b 0041 634a b140
00000040: 8213 c140 c637 a7c0 e6c4 4d3f a566 ae40
00000050: 5f6c aac0 0bd0 d03f ccfb b140 6f70 a4c0
00000060: 4e41 8840 02fd 9bc0 98d8 a7c0 8eaf cec0
00000070: f250 a8c0 7d73 ab40 b849 c0c0 bddf b0c0
00000080: 86a2 b040 4367 b8c0 538d 9b40 7d49 ae40
5.540224 5.41677 -5.334608 -6.9123845 5.0351915 4.722814 0.5609839 2.5861351
5.0898275 -5.3404956 -5.588265 5.7989435 -5.147084 -5.2652392 8.033957 5.5403304
6.0336313 -5.2255583 0.8037857 5.45003 -5.325729 1.631349 5.561987 -5.138725
4.257972 -4.8746347 -5.2451897 -6.45893 -5.259881 5.3578477 -6.008999 -5.527312
5.5198393 -5.762605 4.8610015 5.4464707

inlayer.double_conv.0.0.bias f4 [2]
00000000: 412b 21c0 7399 dcc0
-2.518265 -6.8937316

inlayer.double_conv.0.1.weight f4 [2]
00000000: 5287 7dbf 0081 dfc0
-0.9903461 -6.984497

inlayer.double_conv.0.1.bias f4 [2]
00000000: ee53 a9c0 411f b140
-5.2914953 5.535065

inlayer.double_conv.0.1.running_mean f4 [2]
00000000: e70b 3dc3 392f f342
-189.0465 121.59223

inlayer.double_conv.0.1.running_var f4 [2]
00000000: ee62 b941 abba 2842
23.173306 42.182293

inlayer.double_conv.1.0.weight f4 [4, 2, 3, 3]
00000000: 72dc b140 2c5d b2c0 2bb5 b1c0 4ff9 b0c0
00000010: 3f53 a8c0 3024 a7c0 c0c1 b1c0 2479 b1c0
00000020: 53b3 abc0 6dd9 abc0 674e afc0 bedb a7c0
00000030: 46a1 a940 e7e3 aac0 d37f abc0 757b afc0
00000040: b614 b2c0 75cb a9c0 a504 b240 9eef aac0
00000050: ff25 b0c0 d8ca a640 0677 ab40 4475 a7c0
00000060: a80f 8840 9d70 a140 cd2d b4c0 201a ab40
00000070: 5cba c040 eeee ea40 ffcf a7c0 b2fe 9ec0
00000080: 511b c340 d8ca a3c0 ce1b a9c0 2218 b540
00000090: 468e b2c0 ba24 b0c0 ef59 b0c0 e18c ac40
000000a0: af2e a9c0 9651 a8c0 012f b3c0 1ae5 abc0
000000b0: 2ef9 a6c0 40b4 b3c0 7b75 bd40 5066 b240
000000c0: cadf a9c0 7ccd b740 3d32 ac40 6015 a8c0
000000d0: 7584 aa40 8b14 af40 517c ac40 3983 b240
000000e0: 8bac a940 4b7b a740 26c7 a640 1028 ae40
000000f0: 1b59 abc0 d748 a540 f79f a840 1197 9140
00000100: 0c53 9fc0 e7b3 ab40 2f25 ab40 6e14 af40
00000110: e245 ac40 a7d1 a840 523a b340 85bb ac40
5.55816 -5.5738735 -5.553365 -5.530433 -5.260162 -5.2231674 -5.554901 -5.5460377
-5.36564 -5.370291 -5.4783206 -5.245574 5.3009367 -5.34032 -5.3593535 -5.4838204
-5.565028 -5.306086 5.563067 -5.34175 -5.504638 5.212261 5.358279 -5.2330647
4.251911 5.0449967 -5.630591 5.346939 6.022749 7.341666 -5.24414 -4.9685907
6.0970845 -5.118511 -5.284644 5.659196 -5.5798674 -5.504483 -5.510978 5.392197
-5.2869487 -5.259959 -5.599488 -5.3717165 -5.2179174 -5.615753 5.920591 5.5749893
-5.308568 5.7438335 5.3811326 -5.2526093 5.328669 5.4712577 5.3901753 5.5785184
5.3023124 5.2338004 5.21181 5.4423904 -5.354627 5.1651416 5.269527 4.5496907
-4.9788876 5.3657107 5.348289 5.471244 5.3835306 5.2755923 5.600869 5.3978906

inlayer.double_conv.1.0.bias f4 [4]
00000000: e0f9 85c0 488c a6c0 c1f5 a7c0 e17d ab40
-4.1867523 -5.204624 -5.2487493 5.359116

inlayer.double_conv.1.1.weight f4 [4]
00000000: 2760 88c0 a8f5 eb40 cdc4 45c0 dc6e d840
-4.2617373 7.3737373 -3.0901368 6.7635326

inlayer.double_conv.1.1.bias f4 [4]
00000000: 3e72 ab40 2bb8 bf40 4e77 aec0 6142 9dc0
5.3576956 5.9912314 -5.4520636 -4.914353

inlayer.double_conv.1.1.running_mean f4 [4]
00000000: 6fc2 59c3 dd3f 4942 b5c1 b642 937a 5843
-217.7595 50.312366 91.378334 216.4788

inlayer.double_conv.1.1.running_var f4 [4]
00000000: 74aa e146 7dd6 2f46 8458 9546 18a2 c246
28885.227 11253.622 19116.258 24913.047

outlayer.double_conv.0.0.weight f4 [2, 4, 3, 3]
00000000: bd6a a740 eed3 a3c0 b426 a9c0 9668 ab40
00000010: 987b a940 a50c a940 b955 6240 86aa aa40
00000020: ba19 a840 e62a ae40 c386 af40 470d ae40
00000030: 400b b040 8b44 ae40 ae9e b040 f5a3 a740
00000040: 1d06 ae40 c7f0 af40 d56e a840 4e96 ac40
00000050: 719a b240 67da ac40 f740 b040 980a ab40
00000060: df63 a940 c9a3 ae40 35eb ac40 7800 b140
00000070: fc51 ae40 ad14 a940 e9e4 aa40 6dfa ac40
00000080: fe05 b040 46ce ab40 84b7 a840 6d39 b040
00000090: 24f5 a940 781d b040 2cc4 ae40 89d4 9fc0
000000a0: 5dcb af40 ca6b ac40 f1e8 9bc0 da34 c740
000000b0: 69a6 ae40 da0f b240 37e6 a940 5d99 ad40
000000c0: 2ede ad40 740b ab40 359c a740 3ec8 b240
000000d0: 039f ac40 3230 b040 6a70 ad40 b4a2 ac40
000000e0: 7f06 a640 9c5a ad40 42e7 a540 e3ce a540
000000f0: 04e2 a840 cb75 a940 504d b040 9f8a ad40
00000100: fea3 af40 e365 ac40 5654 a940 9df8 ab40
00000110: fe7a af40 41cd a840 2d7c ad40 c352 ae40
5.2317796 -5.1196203 -5.2859745 5.356517 5.296337 5.2827935 3.536482 5.333316
5.2531404 5.4427366 5.4852004 5.439121 5.5013733 5.445867 5.51937 5.2387643
5.4382463 5.498142 5.2635293 5.3933477 5.5813527 5.4016604 5.5079303 5.345043
5.2934413 5.4574933 5.403712 5.531307 5.447508 5.283774 5.340443 5.4055696
5.5007315 5.36893 5.272402 5.50701 5.3111744 5.5035973 5.461447 -4.994694
5.4935746 5.388158 -4.872185 6.2252016 5.4578137 5.564435 5.3093524 5.424971
5.4333715 5.345148 5.2378182 5.5869436 5.3944106 5.505883 5.4199724 5.394861
5.188293 5.4173107 5.1844797 5.1815047 5.27759 5.295629 5.5094376 5.4231715
5.4887686 5.3874373 5.291545 5.3740983 5.4837637 5.2750554 5.421408 5.4476027

outlayer.double_conv.0.0.bias f4 [2]
00000000: 2489 4a41 af39 9f40
12.658482 4.9757915

outlayer.double_conv.0.1.weight f4 [2]
00000000: 6edf 7fc0 cd7c 9540
-3.998012 4.6714845

outlayer.double_conv.0.1.bias f4 [2]
00000000: 5b7f 2841 dcf2 b740
10.531093 5.748396

outlayer.double_conv.0.1.running_mean f4 [2]
00000000: b160 f243 1221 f943
484.7554 498.25836

outlayer.double_conv.0.1.running_var f4 [2]
00000000: a3c4 c548 25d9 d248
405029.1 431817.16

outlayer.double_conv.1.0.weight f4 [1, 2, 3, 3]
00000000: e560 a540 ba5d b240 003a b440 106f ae40
00000010: b2ff b140 11f7 a840 96a7 ab40 ff18 b340
00000020: 4451 ac40 79ce a240 ec50 9c40 fee9 8540
00000030: cae8 a740 abf6 aa40 9718 ae40 6073 dd40
00000040: 35b2 af40 15c1 a240
5.168078 5.573941 5.63208 5.4510574 5.562463 5.2801595 5.3642073 5.5968013
5.38492 5.087704 4.884878 4.1848135 5.2471666 5.342611 5.4405017 6.920334
5.490504 5.0860696
