single_point_model_overfit1.pt (torch, 22859 bytes, 45 tensors)

exp_avg f4 [2, 2, 3, 3]
0	0x3a5f1c53	0.00085109955
1	0x39e29973	0.00043220408
2	0xbac05662	-0.0014674182
3	0x3ab8ddca	0.0014104184
4	0x3997e723	0.00028973175
5	0xb9fe799b	-0.00048537258
6	0x3a190e7b	0.00058386446
7	0x3a2bc484	0.00065524154
8	0x399bbb2e	0.00029703364
9	0x39f89a6f	0.00047417308
10	0xb848157f	-4.7703736e-05
11	0x3a06d7ae	0.0005143833
12	0x3b1b1bfb	0.00236678
13	0x3a70bd9e	0.00091835286
14	0xbab315f7	-0.0013663162
15	0x3be21f83	0.006900729
16	0x3ba5237e	0.0050396314
17	0x3ab57ad1	0.0013845806
18	0xbb13a1e7	-0.0022526921
19	0xbb287dce	-0.002570975
20	0xbb1453a6	-0.0022632866
21	0xbb810f30	-0.003938578
22	0xbb8281de	-0.0039827665
23	0xbb668b00	-0.0035178065
24	0xbb35f4bd	-0.0027764284
25	0xbb608aa8	-0.0034262333
26	0xbb4d27ea	-0.0031304308
27	0xbc4afd2b	-0.0123894615
28	0xbc31d54d	-0.0108540775
29	0xbc916195	-0.017746726
30	0xbc9eb566	-0.019373607
31	0xbcab2b6e	-0.020894732
32	0xbcb5c5c9	-0.022189038
33	0xbc96039a	-0.018312264
34	0xbcd8ee41	-0.026480796
35	0xbcfb2d0c	-0.030661128

exp_avg_sq f4 [2, 2, 3, 3]
0	0x3f8d81c4	1.1055226
1	0x410e5738	8.896294
2	0x41bdffcf	23.749907
3	0x4137194c	11.443676
4	0x41f79837	30.949324
5	0x3d9c6ac8	0.076375544
6	0x3f5df3dd	0.8670023
7	0x413aa3a6	11.664953
8	0x3edb302f	0.428102
9	0x41ea3b0f	29.278837
10	0x40339cb2	2.806439
11	0x4008d2ed	2.137874
12	0x41f93cf9	31.154772
13	0x4187733f	16.931273
14	0x3fdf09b7	1.742484
15	0x3f96be83	1.177689
16	0x41b17ea0	22.186829
17	0x41a4cb1e	20.599178
18	0x40f7b0ce	7.7403326
19	0x40729cd2	3.7908216
20	0x3f7129e6	0.94204557
21	0x4102d12c	8.176067
22	0x416e14a1	14.880036
23	0x3fb29129	1.3950549
24	0x4279e045	62.469013
25	0x42d3c375	105.88175
26	0x41d4bb16	26.59135
27	0x40c1d165	6.056811
28	0x41637eca	14.218454
29	0x41b39e4a	22.45229
30	0x416ed3cc	14.926708
31	0x4316451f	150.27
32	0x4146a7aa	12.415934
33	0x42855e71	66.684456
34	0x41537735	13.216603
35	0x424b0d7b	50.763165

exp_avg f4 [2]
0	0x36a640b2	4.954717e-06
1	0x37d5211d	2.5406998e-05

exp_avg_sq f4 [2]
0	0x3504216c	4.922247e-07
1	0x34ee5689	4.4393917e-07

exp_avg f4 [2]
0	0x3e402132	0.18762663
1	0xbda72059	-0.08160467

exp_avg_sq f4 [2]
0	0x435d0ff7	221.06236
1	0x42b793a2	91.788345

exp_avg f4 [2]
0	0x3bd70f1b	0.00656308
1	0x3b504e33	0.0031784892

exp_avg_sq f4 [2]
0	0x3effc96b	0.49958357
1	0x4104a534	8.290333

exp_avg f4 [4, 2, 3, 3]
0	0x3b271c16	0.0025498918
1	0xbab4d81d	-0.0013797317
2	0x3b0a14f6	0.0021069623
3	0x3bf38b98	0.0074324124
4	0x3bd7b805	0.006583216
5	0x3bd6adb0	0.006551467
6	0x3b9fbc35	0.004874731
7	0x3bd8cd10	0.006616242
8	0x3bd20d06	0.006410244
9	0x3c092e20	0.008372813
10	0x3bb0208d	0.005374974
11	0x3c022376	0.007943025
12	0x3c05ec3c	0.008173998
13	0x3bd0c7e5	0.0063714855
14	0x3b04ac2b	0.0020244222
15	0x3c587ce4	0.01321337
16	0x3c4ef409	0.012631425
17	0xba6b4fbb	-0.00089764193
18	0x3b0c90b8	0.0021448564
19	0xbba5510e	-0.005045063
20	0xbba84f65	-0.0051364177
21	0xbb6dbefb	-0.0036277163
22	0xbbe71f8a	-0.0070533203
23	0xbbea1155	-0.0071431794
24	0xbbc305d9	-0.005951625
25	0xbba9082c	-0.005158445
26	0xbbfb8ff4	-0.0076770727
27	0xbc444c33	-0.011981058
28	0xbc3438f5	-0.010999908
29	0xbbfcb694	-0.0077121947
30	0xbc1b5608	-0.009480961
31	0xbb9b1fca	-0.004734014
32	0xbc02ac2e	-0.007975621
33	0xbc221941	-0.009893716
34	0xbc01579c	-0.007894423
35	0xbc02d0de	-0.007984368
36	0x3b90a6db	0.004414422
37	0x3ba7254e	0.0051008826
38	0x3b8bf62e	0.0042712903
39	0x3bbfc97b	0.0058528758
40	0x3bc4a108	0.0060006417
41	0x3ba2ae43	0.0049646213
42	0x3c04de98	0.008109711
43	0x3bfc70ea	0.00770389
44	0x3b96a38f	0.0045971344
45	0x3c14c92c	0.009081166
46	0x3bcc38f2	0.0062323743
47	0x3ba7e64b	0.0051238886
48	0x3c5ed6f1	0.013601051
49	0x3c00edb9	0.0078691775
50	0x3ac48e51	0.0014996027
51	0x3c33230b	0.010933648
52	0x3bd881d0	0.0066072717
53	0xbb4412fd	-0.0029918544
54	0xba6d551a	-0.00090535136
55	0xba7894af	-0.0009482605
56	0xba102636	-0.0005498858
57	0xbad7aeca	-0.001645529
58	0xba85cf06	-0.0010208793
59	0xba4267e8	-0.0007415996
60	0xbb22385f	-0.0024752838
61	0xbabe9c45	-0.0014542422
62	0xba18d285	-0.00058297097
63	0xbb464278	-0.003025202
64	0xb9bb157c	-0.00035683427
65	0xb9733976	-0.00023195692
66	0xbb909981	-0.0044128303
67	0xba1d46a4	-0.0005999601
68	0x396914f9	0.00022228424
69	0xbaf04724	-0.0018331748
70	0x3b0c084b	0.0021367248
71	0x3b195e1a	0.0023402036

exp_avg_sq f4 [4, 2, 3, 3]
0	0x418034a4	16.025703
1	0x41a2f259	20.368334
2	0x41dc35d5	27.526285
3	0x3f6fcf04	0.93675256
4	0x3f3af5ff	0.7303161
5	0x3fa961fd	1.3233029
6	0x4209a766	34.413475
7	0x3f0fc677	0.5616221
8	0x3e575cbd	0.2103147
9	0x42062c0b	33.54301
10	0x4278fe3d	62.24828
11	0x415af3b6	13.6845
12	0x41f1697e	30.17651
13	0x4298e0bf	76.43896
14	0x41a9a856	21.207195
15	0x411b7f15	9.718526
16	0x42e13e54	112.621735
17	0x42cbfd9d	101.99534
18	0x4283212a	65.56477
19	0x4192ecdd	18.365656
20	0x4133c103	11.234622
21	0x418d39c1	17.6532
22	0x40364af2	2.8483243
23	0x3fc5a95e	1.5442312
24	0x41170521	9.438752
25	0x4102796b	8.154643
26	0x3efe1b8b	0.4963039
27	0x4086673d	4.2001023
28	0x416877ab	14.529216
29	0x413fc5cc	11.98579
30	0x41b185cc	22.19033
31	0x42ec3517	118.10369
32	0x41ad7141	21.6803
33	0x424bac45	50.918232
34	0x429b65c9	77.6988
35	0x4131a917	11.103782
36	0x40055b99	2.0837157
37	0x3f87614c	1.0576568
38	0x3fa448e0	1.283474
39	0x3fa2577a	1.2682946
40	0x3f00a889	0.50257164
41	0x401c881d	2.4458077
42	0x3f2bc6ed	0.6710041
43	0x40a99f45	5.300692
44	0x3e9891b9	0.29798678
45	0x401f758e	2.49155
46	0x3ff5aea7	1.9193925
47	0x40332b83	2.7995307
48	0x40f6b96e	7.7101355
49	0x40dfc828	6.993183
50	0x4076b347	3.8546922
51	0x4163a00e	14.226576
52	0x403e1f50	2.9706612
53	0x4056fa40	3.359024
54	0x4103967e	8.224241
55	0x408fc7cc	4.4931393
56	0x3fe147f3	1.7600082
57	0x3f982f1a	1.1889374
58	0x3f542458	0.82867956
59	0x3fd9d9fa	1.7019646
60	0x3e5e81b5	0.21729167
61	0x4083a4af	4.113853
62	0x410f14df	8.9425955
63	0x410c4784	8.76746
64	0x404b0534	3.1721926
65	0x406098f7	3.5093362
66	0x41188605	9.53272
67	0x410a0cf7	8.628165
68	0x40a0fce1	5.030869
69	0x40c7e897	6.2471423
70	0x402945fd	2.6448967
71	0x3fb46374	1.4092851

exp_avg f4 [4]
0	0xb27a3f81	-1.4566354e-08
1	0xb207bc2b	-7.900819e-09
2	0x320b6b8c	8.115318e-09
3	0x300a8ea8	5.0406834e-10

exp_avg_sq f4 [4]
0	0x293a2722	4.133424e-14
1	0x2bbc97b7	1.3400313e-12
2	0x2b92059b	1.037548e-12
3	0x2a7e6527	2.2594826e-13

exp_avg f4 [4]
0	0x3d220519	0.039555643
1	0xbcc9fdc7	-0.024657143
2	0x3ccaf785	0.02477623
3	0xbc14ece5	-0.009089683

exp_avg_sq f4 [4]
0	0x4349d537	201.83287
1	0x43d07f5c	416.995
2	0x43034f55	131.30989
3	0x42af07b0	87.515015

exp_avg f4 [4]
0	0xbb419ce5	-0.002954298
1	0xbb48c456	-0.0030634603
2	0xbb04b3bd	-0.0020248734
3	0x39706ba7	0.00022928287

exp_avg_sq f4 [4]
0	0x3f836cac	1.0267539
1	0x3f80b7a7	1.0056046
2	0x3f69b051	0.9128466
3	0x3dd1300f	0.102142446

exp_avg f4 [2, 4, 3, 3]
0	0xbb9b9ef8	-0.004749175
1	0xbbafa8bb	-0.0053606904
2	0xb9a22668	-0.00030927663
3	0xbc0622c1	-0.008186997
4	0xbc16edca	-0.009211967
5	0xbb673869	-0.0035281426
6	0xbb9ae2e4	-0.0047267545
7	0xbbc80604	-0.0061042327
8	0xba8f0c94	-0.0010913783
9	0x3c138946	0.0090048965
10	0x3b8a908f	0.0042286585
11	0x3bbc6948	0.005749855
12	0x3bb96824	0.0056581665
13	0x3a4d515e	0.0007832254
14	0x3b628394	0.003456329
15	0x3c22a9b2	0.009928154
16	0x3b974cbf	0.004617303
17	0x3be4e918	0.0069857948
18	0xba996c61	-0.0011705273
19	0xbb740600	-0.0037235022
20	0xba4a9a65	-0.0007728695
21	0xbbf02fbf	-0.0073299105
22	0xbc0e90f9	-0.008701556
23	0xbb818edb	-0.0039537973
24	0xbbaed96c	-0.0053359773
25	0xbbc4eb38	-0.0060094856
26	0xbaadfbf8	-0.0013273945
27	0x3c31471d	0.010820177
28	0x3c04183f	0.008062421
29	0x3bf9206c	0.007602742
30	0x3c2bdf77	0.01049029
31	0x3bec4ebc	0.0072115343
32	0x3bdd5ef3	0.0067557036
33	0x3c514e1f	0.012774973
34	0x3c182e26	0.009288346
35	0x3c06ceef	0.008228048
36	0x3b0dcd0d	0.0021637112
37	0x3b026ca1	0.0019901174
38	0x3b08d045	0.0020876091
39	0x3b724511	0.0036967436
40	0x396057e5	0.00021395048
41	0x3a45c5b6	0.0007544415
42	0x3b577226	0.0032874434
43	0x3b1fed26	0.0024402826
44	0x3a6d949e	0.0009062978
45	0xba67124d	-0.0008814678
46	0xbb1aa204	-0.0023595104
47	0x3a70815b	0.0009174549
48	0xb7c3e98f	-2.335457e-05
49	0xbb318dba	-0.0027092532
50	0xb91b2cae	-0.00014798596
51	0xbb40bfa3	-0.00294111
52	0xba4a4480	-0.0007715896
53	0xb99b057a	-0.00029567984
54	0x375c4cfe	1.3130948e-05
55	0x3a31519d	0.00067641755
56	0x3b765733	0.0037588596
57	0x3b4b6786	0.0031037047
58	0xbb06e29e	-0.0020581852
59	0x3b5f0a37	0.0034033188
60	0x3bc422b9	0.0059855846
61	0x3a4f2bbd	0.0007902941
62	0x3b35fabc	0.0027767858
63	0xbb1a7248	-0.0023566652
64	0xbb66672a	-0.0035156705
65	0xbad34326	-0.0016118034
66	0xbb02ebd2	-0.0019976986
67	0xbb264ca1	-0.0025375264
68	0xbb083e1b	-0.002078897
69	0xbba1a7ff	-0.004933357
70	0xbb0447d4	-0.0020184414
71	0xbaeb2fcf	-0.0017943325

exp_avg_sq f4 [2, 4, 3, 3]
0	0x40b33507	5.600223
1	0x404ccef6	3.200132
2	0x3fe3505a	1.7758896
3	0x40403359	3.003134
4	0x42515864	52.33632
5	0x3f8790a8	1.059102
6	0x42240f72	41.015083
7	0x41757cad	15.342938
8	0x410de362	8.868013
9	0x432d48d8	173.28455
10	0x42cb5d97	101.68279
11	0x40b534b1	5.662682
12	0x438281c2	261.01373
13	0x428a8c63	69.27419
14	0x414b6e6a	12.714457
15	0x44014ab7	517.1674
16	0x430588e5	133.53474
17	0x407cff7f	3.9530942
18	0x4152ba37	13.170463
19	0x41c670a6	24.805004
20	0x41abb593	21.46366
21	0x41a63587	20.776136
22	0x4188f0a4	17.1175
23	0x41c63ec7	24.780653
24	0x42229ecc	40.655075
25	0x41a7c5ad	20.971521
26	0x41c1e977	24.238997
27	0x42e91d61	116.55738
28	0x4250e827	52.22671
29	0x42811468	64.539856
30	0x43066a90	134.41626
31	0x4237b9e4	45.931534
32	0x421c71ed	39.111256
33	0x4359016b	217.00554
34	0x4161feb1	14.1246805
35	0x414bf18c	12.746471
36	0x43042957	132.16148
37	0x42a38680	81.762695
38	0x42304f0e	44.0772
39	0x43377627	183.46153
40	0x420810e2	34.016487
41	0x4256a652	53.662422
42	0x435cb6e9	220.7145
43	0x4215741d	37.36339
44	0x427875dd	62.1151
45	0x43aa7f04	340.9923
46	0x43098b79	137.54482
47	0x4339a227	185.6334
48	0x43b0ad54	353.35413
49	0x42e9c40d	116.88291
50	0x4383ec47	263.84592
51	0x437d1060	253.06396
52	0x438f59fc	286.703
53	0x43c0489b	384.56723
54	0x4301632c	129.38739
55	0x42c87dc6	100.24565
56	0x42d095fe	104.29295
57	0x42e93fe2	116.62477
58	0x42bbf6c3	93.98196
59	0x42a53bde	82.61693
60	0x430d3d78	141.24011
61	0x42f7fa96	123.989426
62	0x430e8f14	142.5589
63	0x42cb63a6	101.694626
64	0x437a77ea	250.46841
65	0x4380ba46	257.45526
66	0x43ca3002	404.37506
67	0x440d4010	565.001
68	0x43c73ba9	398.4661
69	0x43ec9367	473.15158
70	0x44320f25	712.23663
71	0x43efe114	479.75842

exp_avg f4 [2]
0	0xb05ba41e	-7.990496e-10
1	0x300ed115	5.195642e-10

exp_avg_sq f4 [2]
0	0x29516f7f	4.650403e-14
1	0x2b3a6e30	6.623339e-13

exp_avg f4 [2]
0	0xbe9ba3be	-0.30398363
1	0xbec139c7	-0.37739393

exp_avg_sq f4 [2]
0	0x44ddf2dd	1775.5895
1	0x461d2480	10057.125

exp_avg f4 [2]
0	0x3cabdbbb	0.0209788
1	0xb793def1	-1.762758e-05

exp_avg_sq f4 [2]
0	0x43db2745	438.3068
1	0x3fab5568	1.3385439

exp_avg f4 [1, 2, 3, 3]
0	0x3d3dd2b1	0.04634351
1	0x3d471dd1	0.04861242
2	0x3d4a4a55	0.049387295
3	0x3d4d89f3	0.050180387
4	0x3d554113	0.052064013
5	0x3d52a9b8	0.051431388
6	0x3d564296	0.052309595
7	0x3d58a511	0.052891795
8	0x3d5159a6	0.051110886
9	0xbdcb679f	-0.099318735
10	0xbddeeee3	-0.10885408
11	0xbda59ec5	-0.080869235
12	0xbdd4b769	-0.10386545
13	0xbdf24f8d	-0.11831579
14	0xbdb76fdd	-0.08956883
15	0xbdc4d730	-0.09611356
16	0xbdbb7f75	-0.0915517
17	0xbd9f5386	-0.07779603

exp_avg_sq f4 [1, 2, 3, 3]
0	0x44b845b6	1474.1785
1	0x449740cd	1210.025
2	0x440327bc	524.62085
3	0x45027ba0	2087.7266
4	0x447d91d5	1014.2786
5	0x445224bc	840.574
6	0x44f51445	1960.6334
7	0x44bb3f2e	1497.9744
8	0x4474918e	978.2743
9	0x43b43705	360.42984
10	0x43f21901	484.19534
11	0x43b33e88	358.48853
12	0x42c1ad80	96.83887
13	0x43bbf120	375.8838
14	0x434b0a58	203.0404
15	0x4357f837	215.96959
16	0x43840343	264.02548
17	0x4303db1d	131.85591

inlayer.double_conv.0.0.weight f4 [2, 2, 3, 3]
0	0xc054e556	-3.3264976
1	0xc098a09f	-4.769607
2	0x409e4eac	4.9471035
3	0x40ca7a81	6.327454
4	0x40b71781	5.721619
5	0x40b40024	5.625017
6	0xc0dedece	-6.964698
7	0x40bacede	5.8377523
8	0x4103f991	8.248429
9	0xbf8cca54	-1.0999246
10	0x41529c06	13.163092
11	0x415831b9	13.512139
12	0xc088fc95	-4.280833
13	0x40c36360	6.1058807
14	0x412e427c	10.891232
15	0xbf74b708	-0.95591784
16	0x40a03732	5.0067377
17	0xc0953bfd	-4.663573
18	0xc073749c	-3.8039923
19	0xc084ccdc	-4.1500072
20	0xc0b3602e	-5.6054907
21	0xc1609f1f	-14.038848
22	0xc0449e91	-3.0721781
23	0xc125ece9	-10.370339
24	0xc0d57283	-6.6702285
25	0xc0b34cd6	-5.6031294
26	0xc1166e68	-9.401955
27	0xc147eaa5	-12.494786
28	0xc0d58d8a	-6.6735277
29	0xc187ed1b	-16.990774
30	0xc012c664	-2.2933588
31	0x40e0f1fe	7.02954
32	0x40ad7c4d	5.4214234
33	0xc1125347	-9.145331
34	0x40d037c9	6.5068097
35	0x417b21a9	15.695718

inlayer.double_conv.0.0.bias f4 [2]
0	0x4080c7d3	4.0243926
1	0x40cfa0b9	6.4883695

inlayer.double_conv.0.1.weight f4 [2]
0	0x408b3ca3	4.351152
1	0x41245f66	10.273291

inlayer.double_conv.0.1.bias f4 [2]
0	0xc100974a	-8.036936
1	0x41bc137a	23.50951

inlayer.double_conv.0.1.running_mean f4 [2]
0	0xc430e6d0	-707.60645
1	0x44648fb8	914.2456

inlayer.double_conv.0.1.running_var f4 [2]
0	0x42d8e018	108.43768
1	0x42ae708f	87.21984

inlayer.double_conv.1.0.weight f4 [4, 2, 3, 3]
0	0xbf3d1d22	-0.7387258
1	0xc0025d46	-2.036943
2	0xc015d527	-2.3411348
3	0x41b46990	22.551544
4	0x40bfb5cc	5.990942
5	0x414c5a28	12.772011
6	0xc07271c5	-3.788194
7	0xc122d5fd	-10.177243
8	0x4124e774	10.306507
9	0xc09328e0	-4.5987396
10	0xc0e08325	-7.016009
11	0x4059f8a5	3.405801
12	0xc1010fa5	-8.066319
13	0xc12bbaf0	-10.733139
14	0xc053e534	-3.3108644
15	0x3f21639b	0.6304261
16	0xc0dc68b9	-6.8877835
17	0xc00692ee	-2.1027179
18	0x403964dc	2.896781
19	0xc0e109d7	-7.032451
20	0xc0f95b3b	-7.7923865
21	0x3fa7061b	1.3048738
22	0xc1069e4d	-8.413648
23	0xbfa25f91	-1.2685415
24	0xc102e4d3	-8.180865
25	0x40a9979b	5.2997565
26	0xc0da85dc	-6.8288403
27	0x3fb17aaf	1.3865565
28	0x40a6c25f	5.211227
29	0xc0c95f46	-6.29288
30	0x4119d313	9.614032
31	0x4112ed8f	9.182998
32	0x400b61f7	2.1778543
33	0x40422142	3.03328
34	0x40eafb48	7.343174
35	0xc0b93335	-5.787501
36	0x40ecbafe	7.397826
37	0x411206f5	9.1266985
38	0x4133fa22	11.248568
39	0x40dc347c	6.881407
40	0x40df5a58	6.9797783
41	0xbfd4bfea	-1.6621068
42	0x41934b11	18.411654
43	0xc09a95de	-4.8307943
44	0x40d41fa3	6.628862
45	0xbf025c17	-0.5092177
46	0xc11ed409	-9.926766
47	0x414c70b7	12.777518
48	0xc11b4658	-9.704674
49	0xc1a7d237	-20.977644
50	0xc01f933d	-2.4933617
51	0x3fe09a9a	1.7547181
52	0xc0be3e2a	-5.9450884
53	0x40e94cf5	7.290644
54	0x41088531	8.532517
55	0x4123d2c2	10.238955
56	0x3f681da6	0.9067024
57	0x41402921	12.010041
58	0x3fc276f8	1.5192556
59	0x40c9d000	6.3066406
60	0x4091a257	4.551067
61	0x40b75c60	5.7300262
62	0x40956ade	4.6692953
63	0xc1063f5f	-8.390471
64	0xc00b4ba9	-2.176493
65	0x400bd4a3	2.1848533
66	0xc133de84	-11.241825
67	0xc070bb0b	-3.7614162
68	0x3f9f1c38	1.2430487
69	0xc0c76d54	-6.2320957
70	0xc15928f2	-13.572496
71	0x4024f3ed	2.577388

inlayer.double_conv.1.0.bias f4 [4]
0	0x41066515	8.399678
1	0x41138fc2	9.222597
2	0x40ac4dc6	5.384494
3	0xc0bf5515	-5.979136

inlayer.double_conv.1.1.weight f4 [4]
0	0xc17924cf	-15.571486
1	0x41805e25	16.045969
2	0xc1b155d4	-22.166908
3	0xc0f8e9a3	-7.77852

inlayer.double_conv.1.1.bias f4 [4]
0	0x4119f1d8	9.621544
1	0x413ea0a7	11.914222
2	0x416c7152	14.777666
3	0xc1e737ae	-28.902187

inlayer.double_conv.1.1.running_mean f4 [4]
0	0xc462c616	-907.0951
1	0x441b22ee	620.5458
2	0xc421b051	-646.75494
3	0xc469d4c9	-935.32477

inlayer.double_conv.1.1.running_var f4 [4]
0	0x4705e416	34276.086
1	0x46cd31c5	26264.885
2	0x475f4ee1	57166.88
3	0x47327f91	45695.566

outlayer.double_conv.0.0.weight f4 [2, 4, 3, 3]
0	0xc05be0fa	-3.4356065
1	0x40f080cd	7.5157228
2	0x4140c0bf	12.047057
3	0x40cedc0f	6.4643626
4	0x40b19d5d	5.5504594
5	0x4111661f	9.087432
6	0x40c1e4f0	6.0591965
7	0x40c7a28f	6.2385936
8	0x40ee8549	7.45377
9	0x40d4fe9a	6.6560793
10	0x40d6f740	6.717682
11	0x406cbe9b	3.6991336
12	0x40c56ffd	6.1699204
13	0x40d7bd33	6.7418456
14	0xbf76feae	-0.9648236
15	0x40bbe52f	5.8717265
16	0x40d4ce65	6.6501946
17	0x405ec1ef	3.4805868
18	0x404859b8	3.130476
19	0x4056498c	3.348239
20	0x4081949e	4.0493917
21	0x409154dc	4.541609
22	0x408ab978	4.33514
23	0x408fc49b	4.4927497
24	0x40b9d072	5.806695
25	0x40b1e2b1	5.5589223
26	0x40c3638d	6.105902
27	0x40e44619	7.133557
28	0xc012772e	-2.2885242
29	0xc002d4af	-2.0442312
30	0x40daaec7	6.833835
31	0xc01a74cd	-2.413379
32	0xc00b356a	-2.1751351
33	0x40ce8c4a	6.454625
34	0xbf206754	-0.62657666
35	0xba1068a5	-0.00055087573
36	0x40a0c9fb	5.024656
37	0x40e3a4d7	7.113872
38	0xbd1e6e0d	-0.03867917
39	0x40d35e2c	6.6052456
40	0x416dab92	14.854387
41	0x40b44235	5.633082
42	0x4072cbfd	3.7937005
43	0x410d2d82	8.82361
44	0x4052a628	3.2913914
45	0x408ff5ce	4.4987555
46	0x40e3fd6b	7.124685
47	0x4028c672	2.6371121
48	0x40b910a9	5.7832837
49	0x412f60bc	10.961117
50	0x40badc1d	5.8393693
51	0x403cf015	2.9521534
52	0x40c155c0	6.0417175
53	0x408b04bb	4.3443274
54	0x40a840a6	5.2578917
55	0x40f4a0eb	7.6446433
56	0x3f515658	0.81772375
57	0x40f88cf7	7.7672076
58	0x413f9cdf	11.975799
59	0x4090eca0	4.528885
60	0x406ea8d0	3.7290535
61	0x40e8ef05	7.279177
62	0x403681d6	2.8516746
63	0x3faf2ccd	1.3685547
64	0x40957d69	4.671559
65	0x408bed11	4.372689
66	0x404dce6f	3.2157247
67	0x40a493f9	5.143063
68	0x40a82d02	5.255494
69	0x4033dae7	2.8102357
70	0x4093e9a9	4.622273
71	0x40a03a04	5.007082

outlayer.double_conv.0.0.bias f4 [2]
0	0x3f929507	1.145173
1	0xc0b4e473	-5.652887

outlayer.double_conv.0.1.weight f4 [2]
0	0xc0fb6fc2	-7.8573923
1	0x40df60c5	6.9805627

outlayer.double_conv.0.1.bias f4 [2]
0	0x413b2ac4	11.697941
1	0x4163b7d7	14.232383

outlayer.double_conv.0.1.running_mean f4 [2]
0	0x44df2afb	1785.3431
1	0x44f935a0	1993.6758

outlayer.double_conv.0.1.running_var f4 [2]
0	0x499bb4a4	1.2755405e+06
1	0x4a069a4b	2.2053308e+06

outlayer.double_conv.1.0.weight f4 [1, 2, 3, 3]
0	0x40b5f323	5.68593
1	0x40b05105	5.50989
2	0x40bc9b46	5.8939543
3	0x40b4eeba	5.6541414
4	0x40bfe95d	5.9972367
5	0x40bee3fd	5.9653306
6	0x40b2abe4	5.5834827
7	0x40bc2394	5.879343
8	0x40bf614b	5.9806266
9	0x40363663	2.8470695
10	0x40ee46df	7.4461513
11	0xbff59f3b	-1.9189218
12	0x40a004cd	5.000586
13	0x4147117f	12.4417715
14	0x404bf907	3.1870744
15	0xc0c0a5cf	-6.0202403
16	0x4095ea9e	4.68489
17	0xc0b123ad	-5.535605
