src/single_point100x100_autoencoder_newmodel_small_polar.pt (torch, 83131 bytes, 86 tensors)

weight f4 [4, 2, 3, 3]
000000 67 d4 06 be f1 62 2c be 0d be 37 be a6 f2 68 3d
       -0.13166963 -0.16834618 -0.17943592 0.056872033
000010 e3 ea 1f be ed 43 79 bd 70 70 bb 3d a7 77 49 3e
       -0.15616946 -0.060855795 0.09152305 0.1967455
000020 15 20 0a 3e 1d a1 56 bd aa e5 6e bd 56 38 5c be
       0.13488801 -0.052399743 -0.058324493 -0.21505865
000030 28 a8 04 3e c3 e2 3f bd bd c4 04 be 2a 4c 27 be
       0.12954772 -0.046847116 -0.12965675 -0.16337648
000040 79 6e 9d 3c fd b8 0a bc a5 b5 b1 3d d4 f6 bf 3d
       0.019217717 -0.008466956 0.08677224 0.093732506
000050 43 b3 22 3e 4d a1 5c be ea 15 35 be 99 4f cc bd
       0.15888695 -0.21545906 -0.17684141 -0.099761195
000060 8b 64 16 3d d0 45 5b bc a0 c2 a1 3d 68 9e 57 3b
       0.03671698 -0.013383344 0.0789845 0.0032900814
000070 5e ab 3e 3e 50 b1 98 bd c3 c6 80 3e 88 b3 7e 3e
       0.18620059 -0.07455695 0.25151643 0.24873173
000080 1c 88 40 3e ba 6b d6 3d 0f 7a a7 3d be e6 37 be
       0.18801922 0.10469766 0.08177578 -0.17959115
000090 c0 4c 76 3e b7 82 3d bd 37 13 17 be 2e de 52 3e
       0.24052715 -0.046267238 -0.14753424 0.20592567
0000a0 93 0e f6 3d 8b a2 c9 3d bd d7 4e 3e 1e 16 c9 3c
       0.120144986 0.09845456 0.20199485 0.02454668
0000b0 a1 6f 4f 3e a5 f6 f7 bd bd d4 83 3d fa 16 db 3d
       0.20257427 -0.121075906 0.06437061 0.10697742
0000c0 2a b7 fe bd 51 b3 4b 3d ed 43 2b 3e 4e d0 09 be
       -0.124372795 0.049731556 0.1672513 -0.13458368
0000d0 b6 cf dc bd b0 69 b5 bd 41 49 63 be 29 ef 1a bc
       -0.10781805 -0.08858049 -0.22195913 -0.009456434
0000e0 d8 9b 36 3d 47 92 23 be 91 93 4d 3e 6a 56 70 be
       0.044582218 -0.15973769 0.20075823 -0.23470464
0000f0 ff f9 2f be b3 58 50 be 39 1b 08 3e fe 43 16 be
       -0.1718521 -0.20346336 0.13291635 -0.14674374
000100 63 fb 36 3e 5b 18 91 bd ea 47 ad bd 78 e1 55 3e
       0.17869334 -0.070847236 -0.08460982 0.20886791
000110 68 b6 f5 3c 70 fd 3a 3c bd 58 ae bd e7 c2 bc bc
       0.029994205 0.011412963 -0.08513019 -0.023042155

weight f4 [4]
000000 02 50 7f 3f d5 d1 80 3f bf 9d 7b 3f 72 93 81 3f
       0.9973146 1.0064036 0.98287576 1.0123122

bias f4 [4]
000000 fb a4 65 bc 48 c3 d7 3c 4b fe c1 3c 8e 07 9d 3c
       -0.014016385 0.026338235 0.023680827 0.019168641

running_mean f4 [4]
000000 ac e1 9b be 93 25 a0 3e 27 72 94 3e 42 60 7c be
       -0.3044561 0.31278667 0.2899334 -0.24646094

running_var f4 [4]
000000 6f c5 14 3c 9e 6a 2f 3c 1d c7 31 3c 76 3f db 3b
       0.009080275 0.010706572 0.010850695 0.0066909147

weight f4 [4, 4, 3, 3]
000000 31 9e 38 3d 9f f8 41 bd ac 4a aa bd b3 19 01 be
       0.045072738 -0.047356244 -0.08315024 -0.1260746
000010 ec 9c d6 3c 0c 3a 93 bd 96 31 1c 3e 1d ae c5 b9
       0.026197873 -0.07188806 0.1525329 -0.00037704493
000020 b2 bf b8 bd be c3 01 be 04 57 22 bd 60 14 2e bd
       -0.09020938 -0.12672326 -0.039633766 -0.0424999
000030 c0 c8 c7 bb e3 a9 17 bd 39 ba 07 3d c3 ed 27 be
       -0.0060969293 -0.03702725 0.03313658 -0.16399293
000040 f4 15 3e be 1c 4f e1 3d 46 dd cc bd 41 92 14 be
       -0.18563062 0.11001417 -0.10003142 -0.14508916
000050 21 54 62 bd b5 f8 71 3d c3 5c 0f 3d af 54 86 3d
       -0.055256013 0.059075076 0.035000574 0.06559121
000060 27 23 e1 bd 49 4f c2 bb 29 2a d7 bd 80 fb cd 3c
       -0.10993033 -0.0059298617 -0.10506088 0.025144339
000070 10 5a 01 bd 8d f2 17 be 2b ee 7e 3d 0b 29 bd bd
       -0.03158003 -0.1483862 0.062238853 -0.09236344
000080 43 c9 15 3d ba 97 31 3e 6f 6f 46 3d 54 a4 1b 3e
       0.03656889 0.17343035 0.048446115 0.15199405
000090 ae e7 bd 3c e3 c6 17 3c b0 1b 37 3d 56 67 c3 3d
       0.023181763 0.009263727 0.04470414 0.09541194
0000a0 41 5e a5 bd da 1c af bd 64 54 03 be 49 a6 0c bd
       -0.08074618 -0.08550425 -0.12825161 -0.03433827
0000b0 62 bf 9d bd 9f fc 33 be ab dd c8 bd 5b ae 41 bd
       -0.07702519 -0.17576836 -0.09807905 -0.04728542
0000c0 e5 0c 9f 3d aa c1 a6 3d 87 b4 92 bc 5e 75 1f bd
       0.07766131 0.08142407 -0.017908348 -0.03893029
0000d0 4b 6d 9c 3b c4 dc dc bd 95 56 02 3e fe 24 12 3e
       0.004773771 -0.10784295 0.12728341 0.14271924
0000e0 3d 00 31 bc 6b 1e 34 3e d4 0d 88 3d 81 10 48 3e
       -0.0108032795 0.17589729 0.066432625 0.19537546
0000f0 cf 28 1c be f6 74 cb 3c c8 f5 e2 3d ea 47 12 bc
       -0.15249942 0.024836045 0.11082035 -0.008928278
000100 62 55 03 be 08 3c 3e be 9f 38 07 3e 9c bd 0a be
       -0.1282554 -0.18577588 0.13205193 -0.13548893
000110 2c 86 aa 3d b5 c8 aa 3d 56 e0 de 3b d6 81 27 3d
       0.083263725 0.08339063 0.0068016453 0.040895306
000120 b9 f2 37 be fd 0f c7 bd b6 df d6 3d fc aa 25 bd
       -0.17963685 -0.097198464 0.10491888 -0.040446267
000130 98 8c 1a bb 3e 92 20 3d f9 bd c9 3c 04 bf 42 3c
       -0.0023582336 0.039201967 0.024626719 0.011886362
000140 fa df 14 bd 8f 3a 8f 3d 2c b5 f9 3a 95 13 4a 3e
       -0.036346413 0.06993591 0.0019051186 0.19734032
000150 d6 90 6b 3e 85 84 7d 3d db 3e 7c bd 10 56 ed bd
       0.2300447 0.06189396 -0.06158338 -0.11588681
000160 82 fc 0d 3e b2 1a aa 3d f5 4f 17 be e9 06 86 3d
       0.13865855 0.08305873 -0.14776595 0.06544287
000170 e3 79 80 3c dd 19 99 bd 0c 6f d6 bd fd 9c 8f bd
       0.01568312 -0.07475636 -0.10470399 -0.07012365
000180 68 03 ef 3d 3f 09 d0 bc 9c 2f 60 bc 24 72 98 bc
       0.116705716 -0.025395034 -0.013683226 -0.018609114
000190 0d 72 e8 bd c0 a1 5b bd 5a e3 fa 3d ec c5 1d 3e
       -0.113498785 -0.053621054 0.12250395 0.15407532
0001a0 ef af 9e bd cb e9 15 3e 99 8b 3c 3d ac 5e b9 3d
       -0.077484004 0.14639966 0.04603157 0.0905126
0001b0 f2 8e 95 bc a4 84 30 3e 02 88 2d 3e 85 77 0c 3d
       -0.018256638 0.17238098 0.16946414 0.03429367
0001c0 05 d5 eb bc b2 5b a5 bc 8a 42 af 3d f3 17 ac 3c
       -0.028788099 -0.020185325 0.08557613 0.021007514
0001d0 a7 c1 af 3d d1 03 b5 3d f0 0a 25 3e 62 35 2f 3c
       0.08581858 0.088386185 0.16117454 0.01069388
0001e0 55 e1 85 bd 00 7d 05 be 5c bc bb bd ab d7 44 3d
       -0.06537119 -0.13035965 -0.09166786 0.04805724
0001f0 a6 e3 83 3d d8 41 4d 3c b3 93 ae bd b6 e2 17 3e
       0.06439905 0.012527905 -0.08524265 0.14832577
000200 73 7f ae bd 34 db 76 3d 36 10 30 3e 62 fc 01 3e
       -0.08520403 0.060267642 0.17193684 0.12693933
000210 8a d2 8d 3d cd 9b e1 3c fa ce 45 3d fc 70 bb bd
       0.06924923 0.027540112 0.04829309 -0.091524094
000220 a2 24 72 bd 05 eb de bd 31 3c c5 bd 69 56 12 3e
       -0.059116967 -0.1088467 -0.09630621 0.14290775
000230 e1 0a 8b 3c 34 58 5d 3d b1 21 72 3d c5 b9 88 3d
       0.01697296 0.054039195 0.059114162 0.06676058

weight f4 [4]
000000 93 bb 84 3f 39 2f 7c 3f 17 9a 7d 3f 90 45 7c 3f
       1.0369743 0.98509556 0.9906325 0.98543644

bias f4 [4]
000000 34 24 b8 3c 19 50 f2 3c a4 92 da 3c 37 2f ff bb
       0.0224782 0.02957921 0.026681252 -0.007787611

running_mean f4 [4]
000000 ac d0 a3 be 06 c3 44 3b ec 34 56 3e 79 0d d9 3e
       -0.31995142 0.003002347 0.20918626 0.4239309

running_var f4 [4]
000000 3f 9c 88 3e 06 ed 6d 3e 27 6a 0b 3e fd 93 0b 3e
       0.26681706 0.23234949 0.13614713 0.13630672

weight f4 [4, 4, 3, 3]
000000 ac 53 46 be 50 f6 ea bd 0a de a2 3d eb d2 90 3c
       -0.19367856 -0.11472762 0.07952507 0.017678699
000010 dc 82 22 3d 88 04 b6 bd 11 e3 9e 3d 60 63 54 3e
       0.03967558 -0.08887583 0.07758153 0.20741034
000020 52 42 67 3d 8b 42 e3 bd 68 dc 19 3e a7 2c 0c 3e
       0.056459732 -0.110966764 0.15025485 0.13688909
000030 65 a8 a5 bc 5a bb 1c 3e 31 57 e5 3d 7f d9 4f bb
       -0.020221898 0.15305844 0.11198271 -0.003171533
000040 94 c3 ee 3d eb ec d6 bc d2 27 03 3e d1 d8 55 3b
       0.11658397 -0.026236018 0.12808159 0.0032630453
000050 35 fd 3c 3e a9 c1 a7 3d 76 99 c0 3b f1 fd fa 3d
       0.18455966 0.081912346 0.005877669 0.12255467
000060 db 5f da bd 21 9f a5 bc 7f f8 f1 3d 51 7b eb bd
       -0.10662814 -0.02021748 0.11814975 -0.1149813
000070 65 77 28 3e 7a 19 3f 3c 11 99 ab bc 0f ec 0b 3e
       0.16451795 0.011663789 -0.020947011 0.13664268
000080 4f fb 0c be 52 95 94 bd 1c 9b 3d bd 46 c7 bb 3d
       -0.13767742 -0.07255043 -0.046290502 0.09168868
000090 8d d2 d7 3c 93 f2 ec bd 80 97 ad bd 11 4d 2a be
       0.026345516 -0.11569705 -0.08476162 -0.16630961
0000a0 61 66 d3 bd c2 d1 96 3d 7e ad a7 bc 56 48 0a be
       -0.103222616 0.07364227 -0.02046847 -0.13504156
0000b0 c3 dc 2f bd 85 10 88 3d 1c df 0c 3e 18 f9 cd bd
       -0.042935144 0.06643776 0.13756984 -0.100572765
0000c0 9d 25 92 3d 97 8d 06 be c2 d6 d1 3d 93 1c cf 3d
       0.071360804 -0.1313995 0.1024604 0.10112872
0000d0 35 53 69 bd 93 d3 f4 bc cc 12 87 3d 3c ac 8f bc
       -0.056964118 -0.029886043 0.06595382 -0.017538182
0000e0 a1 11 02 bd c2 bc 10 3c d2 07 82 3d b0 d0 a8 3d
       -0.031755093 0.008834066 0.06349148 0.08242929
0000f0 f7 9f fe 3d c5 cb 06 bd 37 9a d3 3d e3 ca 27 bd
       0.124328546 -0.032909174 0.103321485 -0.040964972
000100 15 8a 35 3e d5 e2 0a be 75 d0 5b 3d b1 bc cb 3d
       0.17728455 -0.13563092 0.053665597 0.099480994
000110 ae 4d db 3c e0 72 15 3e f7 6e 5f 3d 6b c3 86 bd
       0.026770439 0.14594603 0.054549184 -0.06580242
000120 c3 d9 ef bd e5 89 80 bd 39 f6 05 be 24 20 8e bd
       -0.117114566 -0.06276301 -0.13082208 -0.06939724
000130 36 ed d0 3c 59 84 ac 3d 73 ac 73 3d db b2 81 3d
       0.025503736 0.08423681 0.059490632 0.06332942
000140 53 0a 3f 3d 57 45 cb bd 5a e1 c7 bd aa c6 ca bb
       0.046640705 -0.09925335 -0.09759779 -0.0061882334
000150 33 8d 03 be b1 78 dc bc d3 df e6 3c 47 04 1f 3e
       -0.12846832 -0.026913019 0.0281829 0.15528975
000160 c5 c6 25 be 3a 20 05 be a7 d9 e0 bd c3 88 79 3d
       -0.16189106 -0.13000575 -0.10979014 0.06092144
000170 99 a1 22 be 95 07 95 3d 66 1f 4f bd 0f 86 11 be
       -0.15881957 0.07276837 -0.050567053 -0.14211296
000180 ba 8c b7 3b ff 1f 28 be 3c fc 66 3c 8b b8 09 3e
       0.0056014927 -0.16418456 0.014098223 0.13449304
000190 05 79 05 be 76 be ec 3c 38 ff d3 bd 47 a0 98 3d
       -0.13034447 0.028899413 -0.103514135 0.074524455
0001a0 f9 56 82 bd 78 06 67 bd fb 2f 23 3c 34 44 51 bd
       -0.06364245 -0.056402653 0.00996017 -0.051090434
0001b0 ba 1b e4 3d db 8a 19 be 04 42 b1 3b fa b6 e5 3b
       0.11138101 -0.14994375 0.005409481 0.007010338
0001c0 2a 54 99 bd 45 b4 16 3e 2e 76 44 be 15 86 cf 3c
       -0.07486756 0.14717205 -0.19185707 0.02533249
0001d0 fc b6 12 be de ab b9 bd f9 97 b2 3c cc 1c 1a 3d
       -0.14327615 -0.09065984 0.021800982 0.03762512
0001e0 a5 89 33 3c 13 68 ac 3d 27 b8 23 be 75 08 88 bd
       0.01095811 0.08418288 -0.15988217 -0.06642238
0001f0 0d 83 1b bd 71 29 0f 3e c2 00 44 be ab 90 7b 3c
       -0.037966777 0.13980652 -0.19140914 0.015354316
000200 6d ce c1 3d 0d 54 a4 bd 39 e7 c0 bd 8f c5 21 3e
       0.09463201 -0.08023844 -0.09419102 0.15798019
000210 91 e6 b5 bd 50 c9 e6 bc 28 8a 7f 3d b5 5b c6 bc
       -0.08881868 -0.028172165 0.062387615 -0.024213651
000220 4d e8 18 3c c5 8e 9f bd 64 99 2f be 19 92 7d bd
       0.009332729 -0.07790903 -0.17148358 -0.061906908
000230 9e 5e 4a 3c 12 57 55 bc 9c 99 a0 3b f7 50 82 bd
       0.01235166 -0.013021247 0.004901124 -0.06363099

weight f4 [4]
000000 de 1c 7c 3f 83 71 7b 3f 8b e6 83 3f 91 72 7f 3f
       0.9848155 0.9822008 1.0304731 0.9978419

bias f4 [4]
000000 a8 72 b0 3d 89 e0 bf 3c f0 25 9b bc 6d 32 8c 3a
       0.08615619 0.023422496 -0.018938988 0.001069618

running_mean f4 [4]
000000 65 8a df 3e b3 c8 ae 3d 8d be f0 be b6 41 b3 be
       0.43660274 0.08534374 -0.4702038 -0.3501107

running_var f4 [4]
000000 f6 b7 be 3e f7 ee c5 3e da 43 b5 3e 6d 1f f1 3d
       0.37249726 0.38658878 0.3540333 0.11773572

weight f4 [4, 4, 3, 3]
000000 61 c7 fa bd 48 a0 a4 bd bb eb 00 be 6f 1f 41 3e
       -0.1224506 -0.08038384 -0.12589924 0.18859647
000010 13 b2 be bd 4b d7 3b bd 58 3b d0 3d 0c 99 5e 3e
       -0.09311309 -0.045859616 0.10167569 0.2173807
000020 53 1e 04 bd 5f 7d 2e be 28 e9 c4 3d c4 55 71 3d
       -0.032255482 -0.17040013 0.096147835 0.058919683
000030 2d 8d 18 3d 4c e0 50 3d 99 5f a4 bd 3e e7 e5 3d
       0.03724401 0.050995156 -0.08026046 0.112257466
000040 40 4d c8 3d 16 77 95 3d 24 fc 50 3e 44 ea bd 3b
       0.09780359 0.072981045 0.20408684 0.005795749
000050 22 5d c0 bd 63 8f 13 bd 32 0d 1d 3e d5 72 17 3e
       -0.09392764 -0.036025416 0.15337065 0.14789899
000060 c9 86 6c 3d eb be 7e 3d 54 ba 2b bd 6d ac c9 bc
       0.05774573 0.062193792 -0.041925743 -0.024618352
000070 dc 03 80 3d a7 58 d4 3d 63 d8 0e 3e fe ab cc bd
       0.06250736 0.103684716 0.13949732 -0.099937424
000080 23 8e ca 3d 40 1d 0f 3c ce 42 12 3e ca 34 03 3e
       0.09890392 0.008735001 0.14283296 0.12813106
000090 bb 1e 82 3d c8 0e 8e 3d 57 10 56 bd 71 14 32 3d
       0.063535176 0.06936413 -0.052261677 0.043476526
0000a0 93 88 9c bd 07 d3 dd 3d 32 cf cd 3d 6e b6 ca bd
       -0.07643237 0.10831266 0.10049285 -0.09898077
0000b0 b4 2d 7c 3c dc 4e c8 bc 94 ef 7c 3d 40 9b 0b 3d
       0.015391756 -0.024451666 0.061751917 0.034083605
0000c0 ae 0e 0b 3e 31 e1 04 bd 24 e7 85 bc 1e c1 15 bd
       0.13579819 -0.03244132 -0.016345568 -0.036561124
0000d0 69 16 97 bc e3 d1 9f 3d c5 5c 20 be f1 a4 fb bd
       -0.018443303 0.078037046 -0.15660389 -0.122873195
0000e0 c5 69 99 be 31 65 b4 3d 46 2d 4e 3d 0f b6 db bc
       -0.29963508 0.08808363 0.050336145 -0.02682021
0000f0 c8 5a 91 3c ea 33 f6 3d d9 22 54 bd 9b 05 fc 3d
       0.017743483 0.120216206 -0.051791046 0.12305757
000100 77 72 75 3d 22 2f 15 bd 2c fd 1e be 78 ca 57 3d
       0.059923615 -0.036421902 -0.15526265 0.052683324
000110 51 1f 80 3d 6a 50 81 3d 5e 9f 08 3d 5f 00 86 bd
       0.06255973 0.06314166 0.03335511 -0.065430395
000120 55 63 e2 bd 0e b0 38 3e 1b 43 03 3e c7 f2 8f bd
       -0.11054102 0.1803591 0.12818567 -0.07028728
000130 40 24 b8 bc 00 d5 5f 3d c7 a7 d2 bd 61 09 3e be
       -0.022478223 0.054646492 -0.10285907 -0.18558265
000140 c1 bc 70 bc 74 ba d8 bd 8e 7f 93 bc 9e 6b 1e 3e
       -0.01469344 -0.10582438 -0.018005159 0.1547074
000150 1b 18 15 3c 36 f3 cc bc 20 8f 09 bd 9f ce 9f bd
       0.0090999855 -0.025018316 -0.03358376 -0.07803082
000160 80 11 f1 bd 30 f0 d0 bc 90 69 de bd 03 c2 2b bd
       -0.11770916 -0.025505155 -0.10859978 -0.04193307
000170 84 63 9d 3b 37 af 3c 3e 29 dc 9b bc 33 c1 9c bd
       0.004803123 0.18426214 -0.019025879 -0.07654037
000180 0b 79 8d 3c e6 bc 21 3e ef 26 04 3e 31 c3 f8 3d
       0.017269632 0.15794715 0.12905477 0.12146605
000190 dc 9f 54 bc 76 a1 b9 bd 89 a9 ef bd 17 00 6c bd
       -0.012977567 -0.09063999 -0.11702258 -0.057617273
0001a0 8d c1 8a 3d f3 2a c1 3b 63 6c 20 3e 00 6e fa bd
       0.06775198 0.0058950125 0.15666346 -0.12228012
0001b0 d5 0d 2a 3e af 4c 18 3e 4e 97 76 bd ef f5 f1 3c
       0.16606839 0.14873002 -0.06020289 0.029536216
0001c0 3d b4 d2 3d f8 c0 26 3d 9c c1 0a be 4e 9b dd bc
       0.10288284 0.040711373 -0.13550419 -0.027051594
0001d0 c7 31 1e be a9 f8 6c 3c 92 6a 62 3d fa 75 27 bd
       -0.15448676 0.014463582 0.055277415 -0.040883996
0001e0 f0 af 27 3d ea 1f b4 bd 4e e3 02 bd 4b dc e3 3d
       0.04093927 -0.087951496 -0.031955056 0.11126002
0001f0 ab 3e 3b be 33 8c 01 be f6 e2 8e 3d b7 2e b6 bd
       -0.18285625 -0.12651138 0.06976883 -0.08895629
000200 b8 35 86 bc 77 22 c2 bd e5 8d 8a 3c e2 43 02 be
       -0.016383037 -0.0947923 0.016913364 -0.12721208
000210 92 40 b3 bd 2f 5b 43 3d 39 ff 32 3d 28 63 41 3d
       -0.0875255 0.04769438 0.04370043 0.047213703
000220 ce e5 9b bd 08 06 e6 3d ed 1c 29 3d 64 a0 ac bd
       -0.07612191 0.11231619 0.04128735 -0.084290296
000230 a1 fb 48 bc cb a5 3e bd 1b 82 d9 3d 03 d6 f8 bc
       -0.012267024 -0.04654483 0.10620519 -0.030375486

weight f4 [4]
000000 0b 74 80 3f 1b 2c 85 3f 5c f8 76 3f c5 f8 7a 3f
       1.0035414 1.0404085 0.96472716 0.9803584

bias f4 [4]
000000 74 e2 2e 3d 75 a9 04 3e e2 74 63 bc 0f f3 7a ba
       0.04269643 0.12955268 -0.0138828475 -0.0009572962

running_mean f4 [4]
000000 21 d1 04 3f 71 dc 80 3d 06 7c bf bd 77 a0 04 be
       0.51881605 0.06292046 -0.093498275 -0.12951837

running_var f4 [4]
000000 30 15 65 3e 68 21 f6 3d 4e 4c 8d 3e 35 e2 39 3e
       0.22371364 0.120180905 0.27597278 0.18152697

weight f4 [4, 4, 3, 3]
000000 35 0a b0 bd 5a db 03 be 4e 34 96 3d 09 9c db 3d
       -0.08595697 -0.12876645 0.07334195 0.10723121
000010 3a fa 2e be f7 66 7c bd 42 08 29 3d ad a8 ad 3d
       -0.17087641 -0.061621632 0.04126764 0.08479438
000020 bc 04 1d 3e 56 83 d3 bd a6 12 c7 bb a9 c3 66 bd
       0.15333837 -0.10327785 -0.006075221 -0.05633894
000030 2f 6b 77 bd 84 e2 13 be 33 67 97 3d 58 b3 7a bd
       -0.060404953 -0.14441878 0.073927306 -0.06120619
000040 73 83 fa 3d 4a b9 73 bd 33 f6 8a bd 44 f3 09 3e
       0.12232103 -0.059502877 -0.0678524 0.13471705
000050 dc be 0a be 9e 1d b0 bc 5b 3b 6a 3d f4 90 8f bd
       -0.1354937 -0.021498498 0.057185512 -0.070100695
000060 4c 66 54 bd 33 72 13 3e 4c f2 2a be 25 4c 2a 3d
       -0.05185537 0.14399032 -0.16693991 0.041576523
000070 65 29 ee 3c 81 e8 ea 3d db 59 02 3e 6a a3 35 be
       0.029072473 0.11470128 0.1272959 -0.17738119
000080 ed 28 20 be fb 7d 90 bd eb f4 2b be 33 46 2a be
       -0.15640612 -0.07055279 -0.16792648 -0.16628341
000090 a1 73 e2 bd 8a d3 79 3d 74 71 2e 3d 36 c5 4f be
       -0.11057211 0.060992755 0.042588666 -0.20290074
0000a0 85 f4 40 bd 00 da 6d 3d 43 cf 3c 3d 56 90 ad bc
       -0.047108192 0.05806923 0.046096098 -0.021186989
0000b0 9c 2d c9 bd b1 fd 5b 3d a0 da c3 bc a1 08 ce 3d
       -0.098231524 0.053708736 -0.02390796 0.100602396
0000c0 f6 b5 c4 3d f3 00 9c 3e b6 ce fe 3c 58 6a 7a 3d
       0.09605019 0.30469474 0.031104427 0.061136574
0000d0 b0 36 a7 bd ba f0 57 3d ef db ec bc ce 67 d0 ba
       -0.08164728 0.05271981 -0.028913466 -0.0015900077
0000e0 d8 ba 0f be fe c7 bd 3c c9 2b 07 be 7e 5c dd 3d
       -0.14036119 0.023166653 -0.13200296 0.10808657
0000f0 a8 d1 5f bc ca 35 8c 3d 0d e2 a3 bd 0e 7b 52 bd
       -0.013660826 0.06846197 -0.080021 -0.051386885
000100 c4 17 0e bd ba 4e bf 3c b4 b0 f9 3d a6 6d 16 bd
       -0.034690633 0.02335297 0.121919066 -0.036725663
000110 7a bb 96 bd bd 45 0e ba 81 6b 80 3d a4 c5 62 bd
       -0.07359977 -0.0005427262 0.06270505 -0.055364266
000120 16 6b d8 bd 6c f1 d6 3d 14 48 25 be d2 47 0a bc
       -0.105673 0.10495266 -0.16140777 -0.008439975
000130 2e ba ad b9 19 21 85 bd ae fc 8e bc e0 85 aa 3d
       -0.00033135846 -0.065004535 -0.017454471 0.08326316
000140 a4 16 b6 bd 12 2a 57 3e 8e 6f 5f 3e 17 a6 5d 3e
       -0.08891037 0.21012142 0.21819898 0.2164539
000150 cd 58 4b 3c 36 ef 83 bd 86 df 0c bd 8b 75 d1 3c
       0.0124113085 -0.0644211 -0.034392856 0.025568744
000160 33 18 fa 3d c6 21 02 be 00 02 1c bd 66 b3 0a bd
       0.12211647 -0.12708196 -0.038087845 -0.033862494
000170 d4 a7 a0 bd d2 5f 6e 3c b5 3f b9 3c f5 43 c4 3d
       -0.07844511 0.0145492125 0.022613386 0.09583274
000180 8d 95 80 3d 61 15 84 bc fc 91 71 bd 0f 6a 1d 3d
       0.062785245 -0.016123476 -0.058977112 0.038431223
000190 03 da 47 3c 81 71 7e 3d 06 f4 42 3d a1 7d 2d 3c
       0.012197974 0.062119965 0.047596 0.010589034
0001a0 0c df 23 be 3e 10 a1 3d d5 f8 45 be c7 e2 00 3e
       -0.16003054 0.07864426 -0.19333203 0.12586509
0001b0 ff b2 da bd b9 96 c9 3d db 53 c6 bd 67 c7 1f be
       -0.10678672 0.09843201 -0.09683963 -0.1560341
0001c0 9b 4c e6 bd bc 7a 5c be c8 b8 99 3d 9f 81 8e bd
       -0.1124508 -0.21531194 0.07505947 -0.06958317
0001d0 63 63 02 3e c4 c3 5e bd 74 36 2b 3e c2 c4 64 bc
       0.12733226 -0.054385915 0.16719991 -0.013962926
0001e0 a6 0d 1e 3d 9a 4e 06 3e e1 2f 06 3e e3 1a 22 bc
       0.038587235 0.13115922 0.13104202 -0.009894106
0001f0 45 14 4b 3c 46 fb b3 3d 9b 66 56 3d 74 26 12 be
       0.012394969 0.08788161 0.052343946 -0.14272481
000200 c3 03 02 3d b7 56 fe bd 86 3d 19 3d 79 cc 94 3b
       0.03174187 -0.12418883 0.03741219 0.0045409766
000210 e2 ad 06 ba 36 33 3a bd d4 b5 d6 bd 34 73 6d bd
       -0.0005137605 -0.045458995 -0.104839 -0.057971194
000220 7b 9e ef 3d b7 8e 6d bd 9c c1 dc 3c 73 af 60 bd
       0.117001496 -0.05799743 0.026947789 -0.05485482
000230 5e aa 59 3c 2d 57 58 3d b5 08 fb 3b c0 47 84 3d
       0.013285248 0.052817512 0.00766095 0.06458998

weight f4 [4]
000000 d8 f1 79 3f b9 3c 80 3f 67 0d 87 3f f1 18 73 3f
       0.9763465 1.0018531 1.0550965 0.9495993

bias f4 [4]
000000 f4 64 61 bd c0 20 8a 3d df 78 0f 3e 2a 03 05 3d
       -0.055027917 0.06744528 0.14010952 0.03247372

running_mean f4 [4]
000000 e3 f5 c7 be 7e 8e e7 3d f1 fd 4f 3e d5 9b 5b bc
       -0.39054784 0.11306475 0.20311715 -0.0134038525

running_var f4 [4]
000000 22 3a f1 3e aa 90 6d 3e 20 a0 9c 3e d2 5d d6 3d
       0.47114664 0.23199716 0.30590916 0.104671136

weight f4 [4, 4, 3, 3]
000000 ad 09 55 bd 7f 54 80 bd fd 8d a8 3b 37 d2 bf bd
       -0.05201118 -0.06266116 0.0051438794 -0.09366267
000010 f1 ee 3a be 9d 73 25 bd 52 19 7b 3c e8 51 35 be
       -0.18255211 -0.04039346 0.015325861 -0.17707026
000020 ab e6 ea 3b c3 2a 10 bd 03 f1 a7 bd d9 06 9b 3d
       0.007168611 -0.03519703 -0.08200266 0.075696655
000030 08 3e 81 3c 7e 5b ad 3c 8a d5 0e 3d 07 ab 73 bd
       0.01577665 0.021161791 0.034871615 -0.059489276
000040 a9 c8 e3 3d 30 20 83 bd ec 89 95 bd b2 46 1e 3e
       0.11122257 -0.06402624 -0.07301697 0.15456656
000050 1b ec a8 bd 04 e8 93 3d 8e ff c6 bd 1a 3d 1c 3d
       -0.082481585 0.07221988 -0.09716712 0.03814421
000060 b4 d2 3e 3e 1e 7a 30 3e e8 6e 3b 3e ee b5 57 3b
       0.18635064 0.17234084 0.18304026 0.0032914835
000070 3c af 72 3d 39 fe 9a bd e6 b1 94 bd c5 17 c2 bb
       0.059249148 -0.075680204 -0.07260494 -0.0059232437
000080 6a 16 b4 bd 48 ef dc 3c 83 52 cf 3d 74 39 53 3d
       -0.08793338 0.026969567 0.1012316 0.051568463
000090 8a 36 aa 3d a7 11 ba bc e4 d6 54 3d b2 e0 05 3c
       0.08311184 -0.022713495 0.05196275 0.008171247
0000a0 ea cf e0 3d 53 6c ef bc ff 05 f1 bb 30 a4 0e be
       0.109771565 -0.029226458 -0.007355451 -0.1392982
0000b0 a6 d8 24 be c8 7e 45 3d 99 e9 95 bd 1d 2a 32 3d
       -0.1609827 0.04821661 -0.07319946 0.043497194
0000c0 a2 a9 b9 bd ea 79 9d bd 3f 7b 74 bd a8 cb 47 3e
       -0.09065558 -0.07689269 -0.05968785 0.19511282
0000d0 6e f4 ab bc 10 9b 3d 3e 1c 39 f8 3c 0d 2c fe bd
       -0.020990577 0.18516183 0.03030067 -0.12410746
0000e0 73 c7 bd 3d 14 59 7e 3c 3d 2a b3 3b 8c 54 04 bd
       0.092665575 0.015524168 0.0054676817 -0.032307193
0000f0 5b 9b 89 bd 82 ca 31 bd 44 0e b5 bd bd ed 6e 3d
       -0.06719085 -0.043406017 -0.088406116 0.058332194
000100 aa fb 03 be 15 2e f8 3c b4 90 bf bc f6 c6 44 3e
       -0.12888971 0.030295411 -0.02338443 0.19216523
000110 61 ed 2d bb 7b 62 fd 3d 78 07 59 3c 68 f5 fd 3d
       -0.0026539194 0.12372299 0.01324641 0.12400323
000120 be 7a e5 3d 4f 3b 0b be 14 3d 2d bd 34 5f 98 3d
       0.11205052 -0.13596843 -0.042294577 0.074400336
000130 df 70 c6 3c cc eb 8f bd 2f 61 e6 bd b9 15 c0 bd
       0.024223743 -0.070273966 -0.11249005 -0.09379143
000140 58 f3 f5 bc 03 ce b4 3d ec 11 aa 3d d5 54 81 bc
       -0.030023262 0.08828356 0.083041996 -0.015787521
000150 06 1a 9b bd 2e 16 f3 3d 92 52 bf bd 80 4c 9f bb
       -0.07573323 0.11869465 -0.09341921 -0.0048614144
000160 2f 98 e9 bd 61 12 d6 bd 75 35 42 be 92 57 45 be
       -0.1140598 -0.10452724 -0.18965705 -0.19271687
000170 72 db ff bc 85 62 89 3d 30 52 5b 3e 52 43 a5 3d
       -0.03123257 0.06708244 0.21418071 0.08069481
000180 95 a5 39 3d c6 c0 07 3e 94 2d bd 3d eb 9c 13 3d
       0.045323927 0.13257131 0.09237209 0.03603832
000190 ab 92 20 3b 5d c7 6a bd f4 0b a6 3c 69 bc b9 bd
       0.0024501483 -0.057319034 0.020269372 -0.090691395
0001a0 44 46 d6 3d 31 89 c3 3d 26 51 09 bd 54 99 51 bd
       0.10462621 0.095476516 -0.033524655 -0.051171616
0001b0 c3 c7 3f 3d 81 8b 95 3b 1e 80 18 3d a1 8a 9f bd
       0.046821367 0.0045637493 0.037231557 -0.07790113
0001c0 94 63 03 3d d7 79 6a 3d 10 af 8f bd f7 9e 0f bd
       0.032077387 0.0572451 -0.070158124 -0.03506371
0001d0 9f b0 fe bc df 61 db bc a6 c9 b0 bc 6a 29 1a be
       -0.031090079 -0.026780067 -0.021580528 -0.1505486
0001e0 6c 1a 36 3e 94 25 6c 3e 8f bd f9 3c 0f 4c d7 3b
       0.17783517 0.2306121 0.030485896 0.006570346
0001f0 13 ab f2 bd 15 e9 8e bb 71 35 1c bd 2c 71 e4 3d
       -0.11849036 -0.0043612816 -0.038136903 0.11154398
000200 31 72 65 bd d6 2f 9e 3d a5 a1 c5 bb 4a e1 6b bd
       -0.056017105 0.07723968 -0.0060312324 -0.0575879
000210 b5 08 3b bd 9e 30 28 be 4f f5 56 be b9 e9 98 3d
       -0.0456626 -0.16424796 -0.20992015 0.07466454
000220 05 bd ee 3d 62 95 d0 b9 2b aa 5d bc c0 65 39 3d
       0.11657146 -0.0003978415 -0.013529341 0.045263052
000230 67 bf fa 3d fc 8e 32 bd b7 40 79 bc 73 fc a2 3d
       0.12243538 -0.04359339 -0.015213183 0.07958307

weight f4 [4]
000000 54 e4 80 3f 0f ba 82 3f 99 fd 6b 3f ba f8 71 3f
       1.006968 1.021303 0.92183834 0.9452015

bias f4 [4]
000000 03 23 4b 3e a9 31 41 3e 7a b8 c5 bc d3 92 e4 3c
       0.19837575 0.188666 -0.024135817 0.027902042

running_mean f4 [4]
000000 49 12 e1 3d ab e9 d6 3d cb 0d 0c bd 8d 35 92 bb
       0.10989816 0.104937874 -0.03419284 -0.00446195

running_var f4 [4]
000000 76 87 d2 3e 6a de a3 3e 98 b0 c3 3e bb f8 9c 3e
       0.41118973 0.32005626 0.38220668 0.30658516

weight f4 [4, 2, 5, 5]
000000 a0 9b a3 3b 9b db 3f bd 58 39 dd bd 43 3c 83 3d
       0.004992917 -0.04684029 -0.10801953 0.064079784
000010 28 54 18 be 1b 16 d6 3d 3c f1 46 bd 01 ea ef 3d
       -0.14875853 0.10453435 -0.048569903 0.117145546
000020 15 b9 0d be 9c c7 a6 3d 68 e5 c6 3c 8c 81 d2 bd
       -0.13840134 0.08143541 0.024279311 -0.10278615
000030 a3 ee a1 bd ec 6a b3 3d da f2 af bd 78 8b 45 3d
       -0.079068445 0.08760628 -0.08591242 0.04822871
000040 6f ef bd 3d d9 7d 81 3d 6a 72 ab 3c d9 ad 21 be
       0.09274184 0.06322832 0.02092858 -0.15788974
000050 fc c9 52 bc 7b c9 95 bd 98 9c 0f 3c 8e 6b d8 3c
       -0.01286554 -0.0731382 0.008765362 0.026418474
000060 86 8c 49 be 87 80 0c 3e 2c 77 ff bc cf 35 ed 3d
       -0.19682512 0.13720904 -0.031184755 0.11582529
000070 2e 5f 8d ba d3 f3 54 bd 0e 44 a1 ba 92 41 56 bd
       -0.0010785812 -0.05199034 -0.0012303607 -0.052308626
000080 c9 82 b9 3c d7 c2 38 3e a1 79 21 3e 34 9f a9 bd
       0.022645371 0.18043076 0.15769054 -0.08282319
000090 07 36 41 bd 0f 5b e5 bd a5 31 d5 bd 87 45 32 3e
       -0.047170665 -0.11199009 -0.104098596 0.17409335
0000a0 01 13 2c bb bd 36 91 bd 9a 31 ba bd c9 d0 a1 bd
       -0.0026256444 -0.070905186 -0.09091492 -0.07901151
0000b0 30 ac 42 3d a4 a3 05 be e5 ee 76 3c 42 0d de 3d
       0.047527492 -0.13050705 0.015071605 0.108423725
0000c0 d9 d4 a1 bd 33 12 04 3e f8 61 d0 bd 5f f5 0d bd
       -0.079019256 0.12897567 -0.10174936 -0.034657832
0000d0 d8 b2 40 bd 9a 81 cb bd c6 ba 44 3d 33 ad bb bd
       -0.04704556 -0.09936829 0.048029684 -0.091638945
0000e0 7b 8b 9d bd 60 f5 d1 3d e7 9b 9e bd 48 d6 6c 3d
       -0.076926194 0.1025188 -0.0774458 0.057821542
0000f0 e1 a6 f3 3c 4b cf 80 bd fc 2e af 3d c3 2e 0e be
       0.02974266 -0.06289538 0.085538834 -0.13885026
000100 d0 db f8 bd 95 f2 c7 bd ef b3 36 bc 80 68 02 bd
       -0.12151301 -0.09763066 -0.011151298 -0.03183794
000110 80 9d 2b be 07 1b 93 3d 4a 92 1f 3d 78 22 de 3c
       -0.167593 0.071828894 0.03895787 0.027116045
000120 bc eb 20 bc 34 64 ab bd 4c 9a a3 bd 2d 62 ef 3d
       -0.009821828 -0.083687216 -0.07988414 0.116886474
000130 38 e0 4a 3b 0b a0 5e bd 60 6d b3 bd 44 a6 78 3d
       0.0030956399 -0.054351848 -0.08761096 0.06070544
000140 9b 46 4d bd 4a 46 9e bd 93 63 e8 bb 84 68 a7 bd
       -0.050116163 -0.0772825 -0.0070919483 -0.08174232
000150 56 55 ee 3d 80 18 aa bd 75 5f ff bb ff 86 7e bd
       0.1163737 -0.08305454 -0.007793362 -0.06214046
000160 38 76 e1 bd a9 a5 07 bd 24 bb 3c 3c d9 da e5 3b
       -0.110088766 -0.03311697 0.011519227 0.007014614
000170 8f bc 9e 3d da 86 48 3c 0e b8 5f 3d 7c 19 28 bc
       0.077508084 0.012239182 0.054618888 -0.010259982
000180 b6 21 07 3e e5 09 d9 bd 31 b3 9a bd aa dc 73 3d
       0.13196453 -0.1059759 -0.07553709 0.059536614
000190 54 84 63 3c ae a3 cc bd 1f 1e 8b bd 4f fb e5 3d
       0.01388653 -0.09992157 -0.067928545 0.11229574
0001a0 46 20 31 3e f3 93 fc bd d6 4d 97 3d b7 5d 03 be
       0.17297468 -0.123329066 0.07387893 -0.12828718
0001b0 a5 14 7d bd 1a e5 26 bc 94 b4 8b 3d 28 e2 87 bd
       -0.061787266 -0.010186458 0.06821552 -0.06634933
0001c0 04 46 ef 3d 12 76 51 3d 81 da 68 3e d5 79 74 3b
       0.11683276 0.05113799 0.22739603 0.0037304063
0001d0 b8 00 61 bc 12 76 79 bd 8e a1 ed bc cd 4f d1 3d
       -0.0137330815 -0.060903616 -0.0290077 0.10220299
0001e0 af a3 fe bc 73 30 f3 bc f2 3e 96 3d 05 f9 89 bd
       -0.03108391 -0.029686188 0.073362246 -0.0673695
0001f0 93 38 6b bb 89 b4 ae 3d 8d ba fe 3d a0 f9 fa 3a
       -0.0035891875 0.08530528 0.124379255 0.001914788
000200 46 71 53 3d d1 0b 95 bd ad 11 0c 3e fd 91 89 3c
       0.051621698 -0.072776444 0.13678618 0.016793245
000210 ee c7 ce 3d b7 06 65 bc 57 a0 a8 bd e6 f9 06 3e
       0.10096727 -0.013978652 -0.082337074 0.13181266
000220 3d 94 d0 bc 31 f7 fb bd 78 c7 22 3a 5e 39 c0 bc
       -0.02546131 -0.123030074 0.0006209533 -0.023464855
000230 fe 64 3c 3e 43 d6 04 3e a5 df 43 bd 61 5d ec 3d
       0.183979 0.1297236 -0.047820706 0.11541248
000240 24 03 ad bc f7 50 f7 bc 51 ee df bd 9c fd 09 be
       -0.021119662 -0.030189974 -0.10934127 -0.1347565
000250 64 8b a7 bd 8b 2a 21 bd f4 77 d5 3c ab 85 05 3e
       -0.081808835 -0.039347213 0.026058175 0.13039272
000260 90 7d ca 3d 63 79 72 bd b1 dd 56 ba 3d 3f 00 bc
       0.098872304 -0.059197795 -0.0008196487 -0.007827577
000270 55 84 b7 3d 26 b9 02 3d 6f fb e8 bd ae 75 c1 bd
       0.08960787 0.031914853 -0.11376082 -0.09446274
000280 b7 51 ba 3d f9 a1 13 3d b6 50 24 bd ec 64 02 3e
       0.09097617 0.03604314 -0.040116034 0.12733811
000290 be 91 02 be c9 16 5a bd f5 d0 b2 3d 34 6d 78 3d
       -0.12750909 -0.053244386 0.08731262 0.06065102
0002a0 20 ad d9 bd 51 04 cd bd 66 bf 51 bd 74 bc 07 be
       -0.10628724 -0.10010589 -0.051207922 -0.13255483
0002b0 7a 94 e5 bb da 14 6e 3c 0c e6 d4 bc 45 2d c8 bc
       -0.007006225 0.014531339 -0.025988601 -0.024435649
0002c0 d7 45 74 bd 9f 9f 97 3c f6 27 ec bd 77 ef 54 3d
       -0.059636917 0.01850873 -0.115310594 0.051986184
0002d0 46 17 cb bd 07 77 5a bd 8f fb c7 bd 57 53 a0 bc
       -0.099165484 -0.05333617 -0.09764778 -0.01957099
0002e0 35 4a 04 be 95 e5 b3 3d 62 e7 4e 3d 5b 15 f6 bd
       -0.12918933 0.08784024 0.050513633 -0.12015792
0002f0 b0 4e 7d 3d f4 8a 42 bd 23 95 01 be ff 02 a9 bc
       0.06184262 -0.047495797 -0.12654547 -0.020631311
000300 82 43 e0 bd 9d 0a 91 bd 19 81 80 3d c7 36 70 3c
       -0.10950376 -0.070821024 0.062746234 0.014661497
000310 11 36 e9 3c e6 73 2b bd 87 9b 6a 3d 5b d0 18 3e
       0.028468164 -0.041858576 0.05727723 0.14923231

weight f4 [4]
000000 00 f5 77 3f b2 eb 7c 3f 12 64 83 3f 1e 47 80 3f
       0.96858215 0.9879714 1.0264914 1.0021703

bias f4 [4]
000000 89 b3 42 3d ba 61 0b 3e 4a 4f 0f bd a4 c1 af 3d
       0.0475345 0.13611498 -0.034987725 0.08581856

running_mean f4 [4]
000000 c2 5a f7 bd 6f 14 df be 7f 92 4f 3e 05 5b 8e be
       -0.120778576 -0.43570277 0.20270728 -0.27803817

running_var f4 [4]
000000 a8 fa 0b 3b 06 6a 9b 3c fc d3 8d 3b 5d 04 06 3c
       0.002135912 0.018971454 0.004328249 0.008179751

weight f4 [4, 4, 5, 5]
000000 63 65 1e bd 79 ea b6 3c b5 1e 7f 3d 2f 60 06 3d
       -0.03867091 0.022328602 0.062285144 0.03280657
000010 84 14 81 bd e8 0a 9a bc d1 f8 39 3d 73 cc b5 3c
       -0.06302741 -0.018804029 0.045403305 0.022192216
000020 83 89 ae bc c8 e1 8b bd d7 02 b3 bd 7e ab b4 3d
       -0.021305805 -0.06830174 -0.08740776 0.08821772
000030 e8 7c 90 3d 98 ae d5 bd 0c 35 55 3d 88 35 c9 3d
       0.07055074 -0.10433692 0.052052543 0.098246634
000040 7c 18 79 bd 14 dc 1c bd cf b1 43 3c f4 ea d2 bd
       -0.060814366 -0.03829582 0.011944248 -0.1029872
000050 48 ff d2 3d 85 8e 5d 3d c5 88 06 bd b7 3a eb bb
       0.10302597 0.054090995 -0.032845277 -0.00717863
000060 b3 8f 51 bd 77 19 0c 3d 55 4d 14 3c c0 7a 03 3d
       -0.051162433 0.034203973 0.0090516405 0.032099485
000070 3d b7 9b bd cf c5 c7 3c dc 98 84 3d cd eb c8 bd
       -0.07603309 0.024386315 0.06474468 -0.098106004
000080 bf 02 ea bd 2c 6c f0 bd 2a 99 97 bd b2 7f 42 bd
       -0.11426305 -0.11739382 -0.074022606 -0.04748506
000090 e6 18 84 3d 1a 9c 83 bd 4e 0d b9 bd 0e 40 4d bd
       0.064500615 -0.064262584 -0.09035741 -0.050109915
0000a0 c7 29 cb bb 44 d2 6c bc 10 58 84 3d 0e 47 08 bc
       -0.0062000486 -0.014454428 0.06462109 -0.008317722
0000b0 9b 6e b7 bd 67 62 82 bd a7 82 7d bd 3b 22 68 bd
       -0.08956643 -0.06366425 -0.061892178 -0.05667327
0000c0 92 84 3a bd a5 e9 94 3d fb 24 22 3e 25 3e 25 3d
       -0.045536585 0.07271127 0.1583442 0.04034247
0000d0 2c b4 7f 3d c7 91 54 bd 35 09 cb bc ec fd e8 bc
       0.062427685 -0.051896837 -0.024784664 -0.028441392
0000e0 68 4f ac 3d 72 bc d7 3c 02 5e d8 bc 15 8c 1f bd
       0.08413583 0.026334975 -0.026412014 -0.038951952
0000f0 e2 d8 c0 bc b0 9b ce 3d 92 ef 9d bd 1c 20 0e bd
       -0.023540918 0.10088289 -0.0771171 -0.03469859
000100 97 8e 6b 3d 89 c7 1c 3e cf 4d 1d bd f5 64 74 3d
       0.05750903 0.15310492 -0.038404282 0.059666593
000110 68 6e 6b 3c 3a e1 9d bd 14 6a 11 3e f8 dd dd bc
       0.014369585 -0.07708974 0.14200622 -0.027083382
000120 e8 5f ee bb bc d3 9e bd 7b 15 fa bc e7 9c 98 bd
       -0.0072746165 -0.07755229 -0.03052782 -0.07451802
000130 ae 6c 5c bd 58 83 b5 bc c2 d6 89 3d 99 ef 81 3d
       -0.053814583 -0.022157356 0.06730415 0.06344528
000140 d0 29 55 3d aa 2c cc bc 9b d4 97 3d a6 8f dc 3d
       0.05204183 -0.024923641 0.07413598 0.10769586
000150 d6 9e f5 bc 23 8f 99 3d 60 e9 15 3e 87 f6 81 3d
       -0.029982965 0.07498004 0.14639807 0.063458495
000160 5c 47 9b bd 98 e8 9b 3c 40 b3 25 3d 94 b0 c9 3d
       -0.0758197 0.019031808 0.04045415 0.09848133
000170 fa 12 2f bc 87 31 63 3d dc d1 0e 3d 31 0d 6a bc
       -0.010685677 0.055467155 0.034868106 -0.014285372
000180 aa 27 b5 3d 6e 45 b5 bd 1b f0 b2 bd 07 43 11 bd
       0.08845456 -0.08851133 -0.08737203 -0.035464313
000190 96 25 91 3d c3 4a a0 bd ad 0a 23 3d 3a 00 19 3d
       0.07087247 -0.0782676 0.039805103 0.03735373
0001a0 6d 63 d7 3d 05 db e5 bc 4d b9 b7 3d 1b 2c a4 3d
       0.10517011 -0.028058538 0.0897089 0.08016225
0001b0 40 02 50 3d 4c d8 f4 3b fc 2e 3a bd 9c 85 88 3d
       0.050783396 0.0074720737 -0.045454964 0.06666109
0001c0 52 98 67 3c 84 51 03 3e 6f 2e 29 3d 11 66 6a bd
       0.014135437 0.12824064 0.04130405 -0.057226244
0001d0 62 c8 7a 3d be 12 a8 3d b8 16 62 3b f1 1d 0a bd
       0.061226256 0.082067 0.0034498405 -0.03371996
0001e0 87 06 0d bd fd 9c 8b 3d fc ac 40 3d 14 c2 32 bd
       -0.034430053 0.068170525 0.04703997 -0.04364212
0001f0 15 a6 e7 3d fd 70 c7 bc df 52 fe bb 22 05 7f bd
       0.113109745 -0.02434587 -0.007761344 -0.062260754
000200 9a 9c 62 3d fb 32 8b 3d 38 31 3f 3d dd f9 77 3d
       0.05532513 0.06796833 0.046677798 0.060541023
000210 6d c0 94 3d 65 be 8b bd cd b8 72 bd 96 51 94 3d
       0.07263265 -0.06823424 -0.05925827 0.07242124
000220 6e dc b7 3d 15 0b d0 3c 06 c7 89 3c 25 34 03 bd
       0.089775905 0.02539591 0.016818535 -0.03203215
000230 80 b4 84 bd e8 5a 62 bd e0 de 22 bd c0 44 6e bd
       -0.0647974 -0.055262476 -0.03976333 -0.058171034
000240 5c 44 86 bd 37 99 d0 bd 7a 9a 28 bd bf 0f 1a bc
       -0.06556007 -0.101854734 -0.041162945 -0.009403168
000250 c0 0c 7f 3d b4 62 aa bc b2 7d ce 3c f9 dd b8 bc
       0.06226802 -0.020799018 0.02520642 -0.022566782
000260 40 36 b7 3d f1 d2 a0 3d b9 36 c0 bd 6e 1d b6 bc
       0.08945894 0.07852734 -0.093854375 -0.02223083
000270 90 90 52 bd b6 57 34 3c aa aa bf bc fc ce 64 3d
       -0.051407397 0.01100724 -0.023396809 0.05586146
000280 4a fa 08 3c 07 13 aa bd 69 09 c6 bc 25 cf 64 bd
       0.008360455 -0.083044104 -0.024174409 -0.05586161
000290 af 15 c2 bd 86 29 1e bd 9f 3b 06 3d 91 97 85 bc
       -0.09476792 -0.03861382 0.032771703 -0.016307624
0002a0 63 77 5b bd c8 c7 31 bc 1f ca d7 bb 90 3f 9a 3d
       -0.053580653 -0.010850854 -0.006585374 0.07531655
0002b0 0d 59 92 3d 85 4d 56 bd 4b 97 a3 3d be c8 f4 3d
       0.07145891 -0.052320022 0.07987841 0.11952351
0002c0 56 04 06 3d 27 9a c8 3d b4 69 67 3d f6 8e b4 bc
       0.03271898 0.09795027 0.05649729 -0.022040825
0002d0 1c bb 95 3d 3c 9f 87 3d 2e 6b 4c 3d 14 dd f6 bc
       0.07311079 0.066221684 0.049906902 -0.030134715
0002e0 96 dc 66 bc e5 98 98 3c 68 d5 26 bd 0a 07 63 bd
       -0.014090678 0.018627593 -0.040730864 -0.055426635
0002f0 f6 a9 9f 3d 20 1b 67 3d 41 a5 66 3d 0e 45 5a 3d
       0.07796089 0.056422353 0.056309942 0.053288512
000300 71 06 3d 3d c6 fb 4d bd 66 74 1b 3c c5 9f 49 bb
       0.04614872 -0.050288938 0.009488201 -0.0030765396
000310 34 f8 a5 3d 95 46 8b 3c 7e 53 2d 3d ae 28 71 bd
       0.081039816 0.01700143 0.042315952 -0.058876686
000320 54 dc ae 3d fd 7f 48 ba 2c c9 01 bd 26 ed b6 3d
       0.08538118 -0.0007648466 -0.031685993 0.08931951
000330 dc 8b ec 3c 54 a9 a1 bc 11 41 1c 3d 79 14 f7 bc
       0.028875284 -0.019734062 0.03814799 -0.03016113
000340 bd 37 3a 3d 26 2c b3 bc a3 47 b1 3c 81 89 66 3d
       0.045463312 -0.021871638 0.021640604 0.056283478
000350 d9 b2 72 3c 23 9a 7a bc a6 29 ec 3d 15 2f 83 bd
       0.014813148 -0.015295538 0.11531381 -0.064054646
000360 25 0e 1a 39 4c 0c 21 bd f2 af 7e 3d 11 5b 1a 3d
       0.00014691854 -0.039318368 0.062179513 0.037684504
000370 03 2f 97 bd fa ae c3 3d c6 45 6e bc c8 53 5b 3d
       -0.07382014 0.095548585 -0.0145430025 0.053546697
000380 0c 8a dc bd 01 16 c9 3d da 20 8a bc e0 f3 09 3d
       -0.10768518 0.0981865 -0.016861368 0.033679843
000390 f1 75 47 3d 48 98 26 3d b7 e2 ea bc 54 ec 63 bd
       0.048696462 0.04067257 -0.02867256 -0.055645302
0003a0 0f fa b1 3d e4 b2 2c bb 81 fc 8f bd 5d a0 b3 3d
       0.08690273 -0.0026351744 -0.07030583 0.08770821
0003b0 0e 90 ff 3d 8d 8f 06 3c f3 92 a2 3c b4 b2 a3 bd
       0.12478648 0.008212936 0.019845461 -0.07993069
0003c0 81 05 10 3d 95 fc 7a bd 3e 2c cb 3d f9 4d a4 3d
       0.0351615 -0.061276037 0.09920548 0.080226846
0003d0 9c 78 4d 3d 4a 1e 6f 3d 49 d6 c4 3d a4 48 9a 3d
       0.05016385 0.058378495 0.09611184 0.07533386
0003e0 9d 34 a5 bd 6e b9 40 3d b8 0d d6 3d 27 7c 8c 3c
       -0.08066676 0.04705184 0.104518354 0.017149044
0003f0 a5 80 a2 bb 8f 0f f3 3d 1c ec ef 3d c8 1b 73 3d
       -0.0049591833 0.11868202 0.11714956 0.059352666

weight f4 [4]
000000 fb c2 81 3f 1d 17 7b 3f 89 0e 7e 3f 54 4a 81 3f
       1.0137628 0.98082143 0.9924093 1.0100808

bias f4 [4]
000000 4a 02 b9 3c 3d 9f 05 3a c1 c8 74 bd 4b fa 39 3d
       0.0225841 0.0005097276 -0.059761766 0.045404714

running_mean f4 [4]
000000 c2 71 0c bc 0a 8c 02 3f 35 91 1f 3f d1 de 30 be
       -0.008572044 0.5099493 0.62330943 -0.17272498

running_var f4 [4]
000000 71 16 02 3e 58 cf d1 3e 52 83 93 3e 24 74 05 3f
       0.12703873 0.40978503 0.28811127 0.5213034

weight f4 [4, 4, 5, 5]
000000 59 8e e4 bb 79 18 0f bd 34 43 b6 bc 59 cb e2 bd
       -0.006974977 -0.03493545 -0.022248842 -0.11073942
000010 8b dd 89 3c d9 84 51 3d ea f8 26 bd cc 79 a6 bc
       0.016829273 0.051152084 -0.040764727 -0.02032175
000020 4e 57 56 3c fa c2 24 bd 09 22 d3 bc 72 ba 57 bd
       0.0130823385 -0.040225007 -0.025773065 -0.052668042
000030 d2 be c8 bd 85 e4 1a 3d aa 2e 12 3d 30 47 87 3d
       -0.09802021 0.03781559 0.035689034 0.06605375
000040 e3 a3 00 bd 73 2e 09 be 1a 98 a5 bd 6a 3d bf bd
       -0.031406295 -0.13396625 -0.08085652 -0.09337886
000050 23 79 dc bd 38 12 54 bb c6 15 5a bc 36 65 a4 bd
       -0.107652925 -0.0032359492 -0.013310855 -0.08027117
000060 e1 d1 f9 bc 70 07 7f 3c 91 c3 4b bd 0e 21 c4 3d
       -0.030495586 0.015565738 -0.049747054 0.09576617
000070 04 07 13 bd ed 35 bc 3c b5 a8 b9 3d d8 5a af 3d
       -0.035895362 0.022974933 0.090653814 0.08562249
000080 3e 57 19 3d 18 29 91 3c 1c a3 8f 3c 88 b5 a5 bd
       0.037436716 0.01771979 0.017533831 -0.08091265
000090 78 d9 3e bd 47 fd b8 bd 50 15 95 3d d3 da 51 3c
       -0.046594113 -0.09032684 0.07279456 0.012808519
0000a0 8b fe 23 3d 83 8a 51 bb fc 6a 96 bd f4 bc 8c bd
       0.040037673 -0.0031973429 -0.073446244 -0.068719774
0000b0 4d 8e 08 bd 35 0e 62 3d 4d f8 48 3c 8d 84 56 3d
       -0.033338834 0.05518933 0.012266231 0.052372504
0000c0 73 54 3d 3d 08 12 3c 3c 4e 5e 63 bd 1a 91 66 bc
       0.046223115 0.011478908 -0.055509858 -0.014072681
0000d0 3d 6f 26 3c 42 8f 9a 3d e4 f0 13 3d 0a 2c e9 39
       0.010158357 0.075468555 0.036118403 0.00044474035
0000e0 28 9e 2e bd 49 da b7 bc c6 2c 2d bc bf 49 7b bc
       -0.0426313 -0.022442954 -0.010569757 -0.015337407
0000f0 79 8c 57 bb 89 95 73 3d 42 b1 15 bd 11 26 91 3d
       -0.0032890125 0.05946878 -0.036546 0.07087339
000100 4e 15 ca ba 8d 82 77 3d 6d 22 04 3d bb 18 28 3d
       -0.0015417726 0.060427237 0.032259393 0.04103921
000110 17 e2 1d bd 63 cc 89 3d 83 44 1e bb da dd 0a 3d
       -0.038545694 0.06728437 -0.0024149723 0.03390298
000120 6f 80 8f bd 40 26 21 3d c3 e9 38 bb b1 3d 23 3d
       -0.07006919 0.03934312 -0.0028215505 0.039853755
000130 10 fc 83 3d 89 fc e7 bc c6 a8 cc 3d f1 af 7b 3c
       0.064445615 -0.02831866 0.099931285 0.015361772
000140 ad a2 34 3c 36 8b 0e bd 88 c3 be bc cd 6c bc 3d
       0.011025113 -0.03480073 -0.023286596 0.092004396
000150 97 4b 4f bd a2 31 cb 3b aa f7 e2 bc 2d ba 0d 3e
       -0.050609197 0.006200985 -0.027705986 0.13840552
000160 af 5f c7 bc 2a 93 9f 3d a7 66 bf bd 22 a4 65 3d
       -0.024337618 0.07791741 -0.09345751 0.056064732
000170 f4 54 ad 3d 46 17 f1 3d 95 43 c1 3d 4b 1d ad bc
       0.08463469 0.11772017 0.094367184 -0.021132132
000180 2b 2f 59 3d aa b7 d1 3c b4 a3 f2 bc 60 75 a4 3c
       0.0530235 0.025600273 -0.029619075 0.0200755
000190 4c 29 ee 3d a4 03 2c 3d 1a 37 b7 3d 31 6d 6d 3d
       0.116289705 0.04199566 0.08946057 0.05796546
0001a0 dc 02 0c 3c 0f 0c ec 3d fb 77 49 3d 89 e2 11 bd
       0.008545604 0.115257375 0.049186688 -0.03561643
0001b0 52 25 03 bd 46 94 4d bd a5 22 de 3d ef a5 88 bd
       -0.032018013 -0.050190233 0.10846452 -0.06672274
0001c0 cb ea 16 3d 68 78 2e bc 1b b9 87 bd ec 21 a3 3d
       0.03684501 -0.010648824 -0.06627103 0.079654545
0001d0 71 ec 4c bc 14 f1 08 3d c9 b0 94 bc 19 82 8a bd
       -0.012507544 0.033433035 -0.018150704 -0.067630954
0001e0 f6 66 61 bc 6a d1 e7 3d cb 41 1d bd 26 34 a6 3c
       -0.013757458 0.113192394 -0.038392823 0.020288538
0001f0 2e b2 42 bd 0e c8 ff 3c 6b d2 28 bd 00 a9 9b bd
       -0.047533207 0.031223323 -0.041216295 -0.076005936
000200 06 66 ea bd 8a b2 04 bd b5 79 60 bc d5 2e 19 bc
       -0.11445241 -0.03239683 -0.013700892 -0.0093495445
000210 e8 04 c4 3c e0 3d 8c 3d f3 b9 1b 3d 45 a7 ff 3c
       0.02392812 0.06847739 0.038019132 0.03120769
000220 97 bd a8 3d f1 0e c1 3d aa a7 a5 3b 84 08 c8 bd
       0.082392864 0.09426678 0.0050553875 -0.09767249
000230 c8 74 9a bd e4 56 a7 bd f4 d7 86 3c 81 1b e1 bb
       -0.075418055 -0.0817087 0.016460396 -0.006869734
000240 2a 70 af 3c f0 6b e8 3c 58 50 47 bd e7 83 46 3d
       0.021415789 0.028371781 -0.048660606 0.048465636
000250 61 af 84 bd 32 0a e7 bd e2 41 76 3d 8b ca ee 3d
       -0.06478763 -0.112812415 0.060121424 0.11659726
000260 48 70 9d bc 9e dc 6a 3d e4 5f ac bd e2 cb 07 3d
       -0.019218579 0.057339303 -0.08416727 0.033153422
000270 fe bd 3c bd 9a 6f b3 3c 87 74 64 bd e6 bd 86 3c
       -0.04607963 0.021903802 -0.05577519 0.016447973
000280 84 b9 9f 3d 5d d7 03 bd a1 4d a3 3d e6 d4 43 3d
       0.07799056 -0.03218781 0.07973791 0.047810458
000290 2b 23 94 3d 76 aa c0 bc e2 ee f4 bd 1f 1a 1f 3d
       0.0723327 -0.023518782 -0.11959626 0.03884327
0002a0 2d f3 5b 3d 86 56 5e bd 87 2a eb 3b 77 26 8b 3c
       0.053698707 -0.054281734 0.0071767005 0.016986115
0002b0 64 d3 bf 3d 46 40 93 3c 14 d4 04 bd 09 07 22 bd
       0.093664914 0.017974984 -0.032428816 -0.03955749
0002c0 18 b5 89 3d 9a 08 5f 3d e0 83 2f bd 07 3c bc bd
       0.06723994 0.054451562 -0.042850375 -0.09191137
0002d0 ea ec 8f 3d a9 49 c3 3d ac 42 94 bd 4a 94 39 bd
       0.0702761 0.09535534 -0.07239279 -0.045307435
0002e0 e2 f0 4a 3c 29 e7 06 3d e0 ba a5 bd 3e 2f a2 3c
       0.0123865325 0.032935295 -0.08092284 0.019797917
0002f0 fc 1b 11 be e4 82 3e 3d 8c c8 d5 3c 45 5a 36 3d
       -0.14170831 0.046511546 0.026096605 0.04451968
000300 2b 97 66 3d 6e 29 ea 3c 0f 5b 06 bc c7 f4 04 3d
       0.05629651 0.028584208 -0.008200421 0.03246
000310 fa 88 a4 bd b0 1b a3 bd 7f e9 66 bd 32 4d 71 3d
       -0.08033939 -0.07964265 -0.056375023 0.05891151
000320 f0 04 1e 3b 20 fd 66 3b 84 ee e4 3c 52 e0 3e 3d
       0.002411183 0.003524609 0.027945764 0.046600647
000330 fa e8 8b 3d b0 da 82 3d 76 4b 76 3d 61 f4 a8 bd
       0.06831546 0.063893676 0.06013056 -0.082497366
000340 b6 c7 aa bd 2c f8 93 bd f7 58 56 3d c0 81 37 bd
       -0.08338873 -0.072250694 0.052330937 -0.044801474
000350 4c 90 c1 bd 1a 70 36 3d 07 e3 fe bd 29 69 76 3c
       -0.094513506 0.044540502 -0.12445646 0.015039721
000360 1c 9f 27 3d 09 0e cd bd 4c 2b 1a be 50 9a ce bd
       0.040923223 -0.100124426 -0.15055579 -0.100880265
000370 63 cb 41 bd 57 fd 8a bd aa 8b b5 bd 2a b5 ba bc
       -0.047313105 -0.06786602 -0.088645294 -0.022791464
000380 4f f9 98 bd 42 f7 d8 3d 1b e6 a1 bd 0b dc 9d 3d
       -0.07469427 0.10594036 -0.07905217 0.077079855
000390 96 99 bc bd d6 8c d1 bb 28 f8 63 3c 95 c7 53 bd
       -0.09208982 -0.006394963 0.0139141455 -0.051704008
0003a0 43 d1 94 3d a8 c6 92 bd 1f 6b 3b 3d 9d a5 d4 3d
       0.07266476 -0.07166797 0.045756456 0.10383151
0003b0 4a ed 85 bd 0f da 02 bd 05 0d aa 3d ea e2 60 3d
       -0.065394 -0.031946238 0.083032645 0.054903902
0003c0 36 c6 82 3c 31 a8 fc 3c 6a 6f 07 bd 1a d6 45 bd
       0.015963655 0.030841919 -0.033065237 -0.048299886
0003d0 dd 79 1e 3d b4 bd 2c bd bb 41 59 3d d5 79 52 3d
       0.038690437 -0.042173102 0.0530412 0.05138572
0003e0 2e 9f 85 3d e1 35 bb 3d 7e ed 69 bd 40 3f a5 3c
       0.06524502 0.09141136 -0.057111256 0.020171762
0003f0 a6 97 93 3d e5 1c 8c bb 0e 96 09 3d ad 57 2f bc
       0.07206659 -0.0042759054 0.03359037 -0.010702056

weight f4 [4]
000000 ce 14 7b 3f 68 23 7a 3f a6 40 7f 3f 14 da 84 3f
       0.9807862 0.97710276 0.9970802 1.0379052

bias f4 [4]
000000 7c fb 78 3c 0f 3e b0 bc 60 22 df 3d e8 31 24 bd
       0.015196677 -0.021513967 0.108952284 -0.040086657

running_mean f4 [4]
000000 4b 6b b1 3d 6c 28 24 3e 51 58 10 be 21 75 c2 bd
       0.08663043 0.16031045 -0.1409619 -0.09494997

running_var f4 [4]
000000 12 8e 00 3f 9d 7b a4 3e 67 8d 50 3f fa cb a0 3e
       0.5021678 0.3212556 0.8146576 0.31405622
