src/vlineA_fakegan_mini.pt (torch, 454617 bytes, 71 tensors)

weight f4 [16, 2, 3, 3]
00000000: fb34 cebd db1f f23d fbfb 5b3e e6e5 de3d
00000010: 28d2 063e 5e52 5c3e 08c2 3ebe e5a7 04bd
00000020: 8904 03be 7f2a 7fbc 58a1 5b3e e513 5e3e
00000030: c266 08be f085 c23c bcff 673e 73e2 64be
00000040: 83a8 483b a18d 35bd 03f5 47be 1c8b 34be
00000050: ee34 07be ed92 0d3e e9ec e83d 4a03 6b3c
00000060: ffc8 f73d 6c8e bdbd 7aef 9f3d 262c d9bd
00000070: 54cb 363d 0a49 4a3e 5c03 473e 0341 cc3d
00000080: 7b52 a4bd a976 babd 7299 16be e055 17be
00000090: 43b7 c73c 0b48 0f3e 4f4c d1bb fb08 b2bd
000000a0: 3422 b4bd 3ac1 6fbc 6c99 473d 3105 cfbc
000000b0: 0a8e 79bd f98b 13be e632 85bd 9149 1b3e
000000c0: a5b3 5c3e 3190 46be 45ad 5a3b 20ec 63be
000000d0: b2e9 5dbe fe20 8abd fcd5 0c3e ff73 45bd
000000e0: b911 32be 7199 04be d948 2fbd 5213 163e
000000f0: 751e dc3d 9f1c 453e a821 8bbd 99a8 46bc
00000100: 2623 563e e9bc b23c 7097 4cbe 2ce8 dfbd
00000110: 5890 463d 5826 a9bd aac6 98bd 1e72 623d
00000120: 5718 ee3d 5a1b 25be b04d c4bc 1fbc 14be
00000130: 37a0 323e aec5 6a3e 6952 713e ecc6 4dbe
00000140: 88d5 6cbe e1a1 b2bd 3ad0 353a be9f a6bd
00000150: 56a7 5e3d 9c36 8bbd 2c10 7a3d 40b6 abbd
00000160: ba05 04be 0d58 583e 8f76 03be 3bef 233e
00000170: d9fe 573e eea1 57be fce9 04bd cc3b 283e
00000180: 7f5f 36bd 63db c0bd 999a c23d 61e4 56be
00000190: 71cb 1dbe 7c2c c53d af5b 33bd 6bf8 45be
000001a0: ac12 5b3e dda8 483e 15ef 263e bed0 21bd
000001b0: 7422 6abd 50b1 2e3c 3c0e e7bd 529d 853d
000001c0: de0a 8fbd f514 893d e79c 65bd 504c 3ebe
000001d0: 1249 323e 5ac8 1f3e d093 5e3e 1582 afbd
000001e0: 9d02 f0bd 4bbc 30be 839f 51be 11cc 3bbe
000001f0: e19e 96bb e308 18be dfc2 d3bd 19a7 063b
00000200: ba61 70be b987 133e aa3f d6ba 2c2e 30bc
00000210: 9199 01be 6b40 493d 326b 0cbe a2b9 663e
00000220: 0a1a 32bd c304 91bc 2948 383e d741 753d
00000230: 62f6 b53d 7a0b 5c3e f8f5 1c3e a7f7 393e
00000240: df51 12be be99 0a3e 2dee 37be 87cd 483e
00000250: 7227 f53c 5655 17be de58 7a3d 59f5 1d3e
00000260: d5f8 433e 15cb c7bd 29af 553e 4609 123e
00000270: 966e 6ebe 0bf9 eb3c dede ccbc d425 cd3d
00000280: 52d7 5b3e 13fe dabd 7026 48be 1a8a 173e
00000290: d518 423d f3db 783d 1ac1 60bd fc43 23be
000002a0: 5da1 b93d 0304 61bd d1de 8b3d c0c0 1cbd
000002b0: e1fd f0bd c5db 043e 5707 6b3e 04ff dbbd
000002c0: a6fb 453c 7a9c dfbd 4749 6e3e e376 0e3e
000002d0: 0eed a23c e5a0 79bc 7a38 2cbe 2f84 bd3d
000002e0: 6b2d 35be dee0 ddbd 9f8f 573d a239 3ebe
000002f0: 0420 1b3b 252b f83d 9c96 573b 0845 1fbb
00000300: 1e1c 9dbd f8a4 3c3e fc17 4bbe 6ece 293e
00000310: b5c7 88bd 143d 08be 10f3 103e ef32 e7bc
00000320: 915e b7bb 38e7 193e f92e 3d3e e88c 1d3e
00000330: 863d 25be 397e 673e b150 253d 7fdc 25be
00000340: 9c04 0e3e 5fe6 2ebe 25a8 453d 6978 3dbc
00000350: ea09 1c3e aa16 00bc b3b9 f33b 8ca5 1abb
00000360: ed44 1d3c 20b6 3cbe d4c5 923d 3fb8 c13d
00000370: 6df7 ac3d 25ac d43d 8bfb 673d c420 c33d
00000380: 7f80 16be 45b8 f1bd 6706 fc3b 1640 70bb
00000390: e818 d63d fc23 e43d 420b 063e 6f37 2f3d
000003a0: a961 8f3d 0196 163e be58 493e b8a5 fd3d
000003b0: 8392 363e 274a febd f89f 8b3d ab13 353e
000003c0: 0de5 583e c1ac f53d f120 d13d cac8 bb3d
000003d0: 3fc7 30be 3acf 163e 26fb 7ebd 6a5b 563e
000003e0: cfee ca3c 1cdc febd 4f85 613e 2309 6bbe
000003f0: 50dd bd3d 08bc bfba 00b7 1c3e 0446 5ebe
-0.10068699 0.11822482 0.21482842 0.108836934 0.13166106 0.21515796 -0.18628705 -0.03238668
-0.12794699 -0.015574097 0.21448267 0.21687277 -0.13320449 0.023745507 0.22656149 -0.22352009
0.003061802 -0.04432452 -0.19527058 -0.17631191 -0.13203785 0.13825579 0.11373312 0.014344046
0.12098884 -0.092556804 0.078093484 -0.10604124 0.044627503 0.19754425 0.19434875 0.099733375
-0.080235444 -0.09104664 -0.14706972 -0.14778852 0.024379378 0.13992326 -0.0063872705 -0.08693119
-0.08795586 -0.014633471 0.0487303 -0.02527103 -0.060926475 -0.14408864 -0.06503849 0.15164782
0.21552904 -0.19390942 0.0033367437 -0.22258043 -0.21671179 -0.06744574 0.13753504 -0.048206326
-0.17389573 -0.12949158 -0.042794082 0.14655808 0.10747997 0.192492 -0.06793529 -0.012125158
0.20911846 0.021818595 -0.19979644 -0.10932955 0.0484775 -0.082592666 -0.07459767 0.055284612
0.11625736 -0.16123715 -0.023962826 -0.14524888 0.1744393 0.22926971 0.23566593 -0.20095414
-0.2312833 -0.08722282 0.000693563 -0.08135937 0.054358803 -0.06797525 0.06105058 -0.08384371
-0.1289281 0.21127339 -0.12838195 0.16009228 0.2109331 -0.21057865 -0.032449707 0.1642906
-0.044524666 -0.09416845 0.095021434 -0.20985557 -0.15409638 0.09627625 -0.04378861 -0.19333045
0.21393842 0.19595666 0.1630214 -0.039505713 -0.057161763 0.010662392 -0.11282012 0.06524147
-0.069844946 0.0669345 -0.056057837 -0.18583798 0.17410687 0.15603772 0.21736073 -0.08569733
-0.117192484 -0.17259328 -0.20471005 -0.18339564 -0.0045965766 -0.1484714 -0.10339903 0.0020546375
-0.2347478 0.14407243 -0.0016345878 -0.010753196 -0.12656237 0.0491337 -0.13712767 0.22531751
-0.043481864 -0.017702466 0.17996277 0.059877243 0.088848844 0.21488753 0.15328205 0.18160878
-0.14289044 0.1353521 -0.1796195 0.19609652 0.029926036 -0.14778647 0.061119907 0.15425624
0.1913789 -0.09755532 0.208676 0.1426135 -0.23284373 0.028805276 -0.025008615 0.10016981
0.21468857 -0.10692992 -0.19545913 0.14798775 0.047386963 0.060756635 -0.054871656 -0.15943903
0.09063981 -0.054935466 0.06829608 -0.03826976 -0.117671736 0.1297446 0.22952019 -0.10742
0.012083923 -0.109185174 0.2327014 0.13912539 0.019888427 -0.015236114 -0.16818419 0.09253728
-0.17693107 -0.10833906 0.052627202 -0.18576673 0.0023670206 0.12117604 0.0032896167 -0.002430262
-0.076713786 0.18422306 -0.19833368 0.16582653 -0.06678716 -0.1330455 0.14155221 -0.02822253
-0.00559599 0.15029609 0.1847495 0.15385783 -0.1613675 0.22606744 0.040360156 -0.16197394
0.13868946 -0.17080067 0.04825606 -0.011564353 0.15238157 -0.0078179035 0.0074379086 -0.0023597209
0.009598953 -0.1842885 0.07166639 0.0945897 0.0844563 0.103843965 0.056636374 0.09527734
-0.14697455 -0.11802725 0.007691193 -0.0036659292 0.10453969 0.11139676 0.13090232 0.042777475
0.07001049 0.1470566 0.19662759 0.12385124 0.17829327 -0.12416487 0.06817621 0.17683284
0.21181126 0.11995841 0.10211361 0.09169157 -0.17263506 0.14727488 -0.062251233 0.20933309
0.024772076 -0.12444326 0.2202351 -0.22952704 0.09270728 -0.0014628181 0.15304184 -0.21706396

weight f4 [16]
00000000: 0000 803f 0000 803f 0000 803f 0000 803f
00000010: 0000 803f 0000 803f 0000 803f 0000 803f
00000020: 0000 803f 0000 803f 0000 803f 0000 803f
00000030: 0000 803f 0000 803f 0000 803f 0000 803f
1.0 1.0 1.0 1.0 1.0 1.0 1.0 1.0
1.0 1.0 1.0 1.0 1.0 1.0 1.0 1.0

bias f4 [16]
00000000: ea2e fc2f 80ac 2eb0 8a84 74b1 2495 fb30
00000010: fde7 6db1 91e1 76b1 dcd6 9e31 ec04 b7af
00000020: 641c 2632 368e 81b1 ff7c 2531 2280 78b1
00000030: b50c 0cb1 2314 6e32 edb9 75b1 a5f3 3232
4.5871867e-10 -6.354597e-10 -3.5582013e-09 1.8305042e-09 -3.461991e-09 -3.5925931e-09 4.622832e-09 -3.3291003e-10
9.668927e-09 -3.7705616e-09 2.4081712e-09 -3.6161585e-09 -2.0379904e-09 1.3858002e-08 -3.5757879e-09 1.0416362e-08

running_mean f4 [16]
00000000: 0704 223b 6b68 32ba 3393 1fbb ac80 99b8
00000010: aa1f 07ba 456c 1f3a d863 3abb dbbf 1f3b
00000020: ee01 0d3b 3a0d a73a 6adf 03bb 7bea 3a3b
00000030: 998f 323b f97c 9b3b 0536 bcba be23 afb9
0.0024721639 -0.00068057206 -0.0024349212 -7.3195755e-05 -0.00051545596 0.0006081502 -0.002844086 0.002437583
0.0021516043 0.0012745031 -0.0020122179 0.002852111 0.0027246235 0.0047451225 -0.0014359361 -0.0003340523

running_var f4 [16]
00000000: ef83 293b 0a4c 4139 d613 b23a 16ea a338
00000010: 475a 4f39 ecfd 893a 29bf d53a 024d c73a
00000020: 2391 a53a 0a1b cb39 7c3f b83a b0c6 e73a
00000030: db08 c53a 15e4 913b 088c 493a 5fc4 5839
0.0025865992 0.00018434241 0.0013586234 7.8160476e-05 0.0001977469 0.0010527945 0.001630758 0.0015205445
0.0012631755 0.00038739323 0.0014057006 0.0017683115 0.0015032546 0.0044522383 0.0007688408 0.00020672519

weight f4 [16, 16, 3, 3]
00000000: 1bf7 433d 351f 2dbd fd75 9e3b e227 8b3d
00000010: a149 943d 7973 7e3d 38f2 1abd 1b01 2e3d
00000020: 77da 803d b6a9 813d ede5 2bbd dd93 2a3d
00000030: 1767 d9bc f68d 6a3d 13a0 84bc 428f 1fbd
00000040: 1b40 58bc 53cc 61bd c0e1 74bd d072 93bc
00000050: 5c0b 813b 16c4 a33d 93a2 5f3d 6745 cfbc
00000060: 74a9 3d3a 8b48 25bd a662 8ebd d633 393d
00000070: 683a 3a3d b170 8ebd e233 81bd 03ac 77bb
00000080: 8d4c 79bd 7fc2 edbc 50fc cd3c 1251 af3c
00000090: 1eba 8fbd 5239 093c deb4 88bd 933a 723d
000000a0: 335f 20bc 6c1a 853d 1112 72bc e56d 7c3d
000000b0: b52e 623d c0b8 1d3c 1785 19bd 97b7 ceba
000000c0: 23d7 293d fe5c 8abd 59b1 92bc 62f1 84bd
000000d0: f3a4 b5bc 98ae 45bb f731 823d e3f8 8a3d
000000e0: 567d 24bd 8b90 b23c f6f1 a3bd 4071 f23c
000000f0: 4bee 61bd 002f 71bd a846 373d f750 a6bd
00000100: fb38 d13c 0251 1c3d beaf 7d3d 04ac 81bc
00000110: 11ef 223d 38da bd3b 8ea6 19bd 05d7 6dbd
00000120: 4d82 353d 14f2 3dbd 481c 923d 6297 aa3c
00000130: c3d0 0cbc 8868 2a3d 3a76 a33d 920c 9f3c
00000140: 8799 8abd bcbd c4bc 6b68 6dbd 1712 673d
00000150: f348 51bb b5a6 37bd 1b01 aabd 191d a83d
00000160: df2d a23d 3f4c 823d 4e96 313d a4e4 5dbd
00000170: 1811 183b 2162 c7bc d39a 47bd f82c e03c
00000180: 92a0 9abd 9fb7 a13d b618 5cbd 4da2 bf3c
00000190: 1eb4 15bd bcb0 80bd 28e1 88bd 804f 633d
000001a0: 1734 a73c d676 f03c 9935 ad3c 453f 7e3d
000001b0: 6e42 04bd 5fc5 60bb 7e73 273c 1627 c3bc
000001c0: 7102 603d 4a76 89bd 363a e7bc f2ea d83c
000001d0: d9b9 85bc 8c97 02bd 5edb 643d 2cac e73a
000001e0: c0d4 0bbd 0c3b 0b3d f29e 4ebd 3421 d3bc
000001f0: f0e7 89bd 9f23 1c3d badb a1bd 1004 6f3d
00000200: 9f51 d43c 445e 9c3d f7b3 383d 5de8 113d
00000210: 1036 123d d18f 2b3c cb82 3cbd 285d c7bc
00000220: dc75 6f3d 7f62 1c3c 464a 0fbd 31ed 843c
00000230: dbb8 933a 6dc3 4f3b 49f7 8e3d c65f 1bbd
00000240: 2edc a73d 1cda 49bd d5aa 463d 2fc4 56bd
00000250: 9155 02bc 9627 463d e60a 463d 663d 2fbc
00000260: ad57 173b 2f1b bf3c 5839 72bd dae3 7abb
00000270: 1d06 083d 3c25 88bd 7b77 f63a 2e85 903d
00000280: 9692 e9bc 2367 863d 2e36 1dba c61b a73d
00000290: 4ee7 85bd 1e28 0bbd 7bd7 3bbc b06e a73d
000002a0: a6ce 42bd 467d 1e3d 5b9e 66bd 3aba b13c
000002b0: 2ac8 22bd 8a9b 693d 0aff 44bd 2113 94ba
000002c0: 072b 903d 3b41 86bb 882c 35bd 143a 023d
000002d0: e80a 06bd 2363 133b 011c b7bc c066 fd3c
000002e0: ab31 43bd 0204 40bd 1077 ac3c 917c 1b3d
000002f0: a01d 6abd 2b5e 373d 922c 67bd d771 09bd
00000300: bb27 34bc 377f 4abd 5247 acbb 0328 8d3d
00000310: 79af 7ebd 0c88 403d 439c be3b 7a12 a1bd
00000320: bda7 b63c 96d3 4f3c ae73 2dbd 56f6 9ebc
00000330: e822 a339 56d8 ef3c 10d8 b03c e39e 843d
00000340: 7d8c a83b 7d71 4d3d fea9 11bd f478 f23c
00000350: ef5a 0e3d 5735 9f3d a619 283d 9fad 903c
00000360: bdf5 7abd 1e76 873d 9117 70bd 352c 373d
00000370: 0125 88bd fe36 2c3b 3002 be3c ff63 523d
00000380: 94b2 dabc ef76 95bd c7c3 5e3d e448 b63b
00000390: afb8 873d 5a47 62bd c15b 36bd 5cb6 c73c
000003a0: 0414 21bd f781 93bd c731 a1bd 4bc1 4d3c
000003b0: eb6e 5fbd 0652 a3bd a62d 4cbd 14ee 913d
000003c0: f33f b5bb 6cb1 0fbc 5647 303d 0077 ba3c
000003d0: 1417 8fbd 3342 9cbc ed98 aabd 9abd 95bd
000003e0: 93af 8a3c e474 88bd 14d7 ae3c 3a66 7e3d
000003f0: e662 fd3c 1242 81bc 1bb8 84bc 0c44 41bd
0.04784308 -0.04226609 0.0048358426 0.067947164 0.07240606 0.062121842 -0.037828654 0.042481523
0.06291669 0.06331198 -0.04196732 0.04164492 -0.026538415 0.05726429 -0.01618961 -0.03895498
-0.013198878 -0.0551265 -0.059785604 -0.017999083 0.0039381217 0.07996385 0.054598402 -0.025301648
0.00072350283 -0.040352385 -0.069524094 0.04521545 0.045465857 -0.06955088 -0.06308724 -0.0037791736
-0.06086402 -0.029023407 0.025144726 0.021400962 -0.07017921 0.008375483 -0.06675123 0.059137892
-0.009788322 0.0649918 -0.014774815 0.06162824 0.055220325 0.009626567 -0.03748044 -0.0015771267
0.041464936 -0.06756018 -0.017906832 -0.064913526 -0.02217338 -0.003016388 0.06357186 0.067857526
-0.040158592 0.02179744 -0.08005135 0.029595017 -0.055158895 -0.058882713 0.044745117 -0.081209116
0.025539866 0.038163193 0.06193518 -0.015829094 0.039778773 0.005793836 -0.037512355 -0.058066387
0.044313718 -0.04637344 0.071343005 0.020824138 -0.008594695 0.041603595 0.07981534 0.019415174
-0.06767564 -0.024016254 -0.05796091 0.056413736 -0.003193435 -0.04483672 -0.08300992 0.08208675
0.079189055 0.06362199 0.043356232 -0.054173127 0.0023203548 -0.024338784 -0.048731636 0.027365193
-0.075501576 0.07896351 -0.053734504 0.02339282 -0.036548726 -0.062837094 -0.0668357 0.05549574
0.02041058 0.02935354 0.021143721 0.062072057 -0.032289915 -0.003429733 0.010220407 -0.023822349
0.05468983 -0.06712015 -0.028226 0.026479218 -0.01632397 -0.031882808 0.055873267 0.0017675213
-0.03413844 0.03399186 -0.05044455 -0.025772668 -0.06733692 0.03811991 -0.07903238 0.058353484
0.025917826 0.07635167 0.045093503 0.03562199 0.03569609 0.0104713 -0.04602317 -0.024336413
0.05846201 0.009544968 -0.034982942 0.016226383 0.0011270301 0.0031702176 0.0698076 -0.037933134
0.08196293 -0.04928027 0.048502762 -0.05243319 -0.007954971 0.048377596 0.048350237 -0.010695791
0.002309303 0.023328392 -0.05913672 -0.0038282783 0.033208955 -0.06647727 0.0018803919 0.07056652
-0.02851228 0.065626405 -0.0005997148 0.08159594 -0.065382585 -0.033973806 -0.011464949 0.08175409
-0.047560357 0.03869369 -0.056303363 0.021695245 -0.039741673 0.0570331 -0.048094787 -0.0011297205
0.07039457 -0.0040971315 -0.04423192 0.03179367 -0.032725245 0.002248951 -0.02235222 0.030932784
-0.04765479 -0.046878822 0.021052867 0.037960593 -0.05715716 0.04476754 -0.05643899 -0.03355583
-0.010995801 -0.049437728 -0.0052575255 0.06892397 -0.062179063 0.047004744 0.0058169677 -0.07864852
0.02229678 0.012684723 -0.04234665 -0.019404572 0.0003111579 0.029277962 0.021587402 0.06475618
0.0051437006 0.05015706 -0.035562508 0.02959869 0.03475469 0.07773846 0.041040085 0.017660914
-0.06126951 0.06614326 -0.058616225 0.044719893 -0.06647683 0.0026277895 0.023194402 0.051364895
-0.02669648 -0.072980754 0.054385927 0.0055628885 0.066270225 -0.055243827 -0.044521097 0.024378948
-0.03932573 -0.07202523 -0.078708224 0.012558292 -0.05454914 -0.07974629 -0.04984822 0.07125488
-0.005531305 -0.008770328 0.04303678 0.022761822 -0.06986824 -0.019074535 -0.083299495 -0.07311554
0.016929423 -0.0666292 0.021342792 0.06210921 0.030930948 -0.015778575 -0.01620107 -0.047184035

weight f4 [16]
00000000: 0000 803f 0000 803f 0000 803f 0000 803f
00000010: 0000 803f 0000 803f 0000 803f 0000 803f
00000020: 0000 803f 0000 803f 0000 803f 0000 803f
00000030: 0000 803f 0000 803f 0000 803f 0000 803f
1.0 1.0 1.0 1.0 1.0 1.0 1.0 1.0
1.0 1.0 1.0 1.0 1.0 1.0 1.0 1.0

bias f4 [16]
00000000: d45b 0ab2 cd10 5c32 955e 1332 d479 a731
00000010: 67ae 7831 3a96 31b1 f539 4bb1 78f0 b1b0
00000020: 9555 0832 1bd3 9d30 d690 8d32 a08a 9731
00000030: 205b 4fb1 44df 04b2 9400 2632 6c79 2cb1
-8.0535365e-09 1.28095055e-08 8.578032e-09 4.87419e-09 3.6187886e-09 -2.5842284e-09 -2.9573333e-09 -1.294679e-09
7.935701e-09 1.1483253e-09 1.6480424e-08 4.4104382e-09 -3.0174263e-09 -7.734176e-09 9.662603e-09 -2.5098315e-09

running_mean f4 [16]
00000000: 96f0 9e3c 6b70 bcbb e92a 89bc 5c2d aa3d
00000010: bd7d a6bb 222d 4f3d 738c 993b 3cd2 713c
00000020: e827 54bd 7402 1e3d df5e 753d 5845 8f3c
00000030: 7d68 e6bd 004c df3c ebbd 033d 9ec3 97bb
0.01940183 -0.005750706 -0.016744094 0.08309433 -0.005080907 0.05058015 0.0046859323 0.014759596
-0.05179587 0.03857656 0.05990493 0.01748912 -0.11250398 0.02725792 0.03216354 -0.0046314737

running_var f4 [16]
00000000: 3363 bc3d 5f58 143e 1758 fb3e b9c5 f63e
00000010: ba10 eb3d 3c2c 193e 5177 cb3d cc47 933e
00000020: e3ec 023e ada2 b73d 800d cf3e bdba e33d
00000030: 2f56 393f 6c85 793e 4298 8a3e 39e0 3c3e
0.09198608 0.14486836 0.49090645 0.48197725 0.114778 0.1495828 0.09934867 0.28765714
0.12785678 0.08966575 0.40439987 0.11119602 0.7239713 0.24367303 0.27069288 0.18444909

weight f4 [16, 16, 3, 3]
00000000: e0b7 38bd 5cb6 6d3c 2629 b63c 03a1 a83d
00000010: c79b 543d 8fe9 9d3d 5725 d5bc 1b3e 5a3d
00000020: 4d9d 953b 408b 6b3d ab89 773d 0740 8fbd
00000030: 3f51 4dbd 61f9 6bbd 0206 713d 6440 95bd
00000040: a9c8 abbc d5e3 79bd 8bf1 b23c be5a 003d
00000050: 8056 17bc 5451 96bc d01d 973d 3f12 9ebd
00000060: 9a74 923c 7558 223b 30bd f43c 10c4 13bd
00000070: e241 85bd f84d 35bd c4da 013d 9750 44bd
00000080: ca7b 133c 9143 a73d f617 9a3d dd4d 45bd
00000090: f5c6 ca3c 6f50 c4bc 3d81 1f3d 38ba a0bd
000000a0: 8859 093d b171 203d 1ebd 90bc 130a 373d
000000b0: 7a65 8d39 2651 fe3a e13e 33bd 26e1 493d
000000c0: e054 f73c 91fe bcbc f65e 7fbd 94b4 31bd
000000d0: 5744 233d a048 9fbd 7e97 d03c 60b8 d63c
000000e0: d920 6b3d 5aed 0fbd e595 20bd 0561 2a3c
000000f0: 47b9 223d d165 19bd 1489 5dbd 7f07 7e3d
00000100: 6f9d 95bd df39 d23c 332c 4d3d d043 993d
00000110: 03f6 393d cd75 1ebd 62bd 86bc fb19 c3bc
00000120: 9a71 8d3d cb27 a13d 565c 75bd bf74 983d
00000130: f8d5 373c 59f4 553d 9743 60bd bd25 a03c
00000140: 105f 543d 82c1 c03b 1645 453d 2f9d 563d
00000150: 4bf1 243c 9fdf 353d 22a0 82bd 6642 98bc
00000160: 0223 c6bc 1770 483c 1264 80bc 5c8a 81bd
00000170: 4af9 65bd c302 a03d 76f1 c13c 5986 7dbc
00000180: 288b 86bd 1ae3 0fbc 5821 c83c 297f 793b
00000190: fca3 3e3d 5aa3 fabc 56ce 99bd 2d13 5fbd
000001a0: 3636 ea3c b88d 3bbd ea19 34bd 86e1 9abd
000001b0: c8a1 313d c021 9abc ee9b 623d e0f5 923d
000001c0: 36fb b0bc cf03 8cbd 00e4 c23b 3b0a b23c
000001d0: 5570 acbb 0ea8 643d 88a0 903c a66c f03c
000001e0: 108e cd3c 0e26 23bd d19a 72bd b722 d6bc
000001f0: 67c3 89bd 07e2 92bd 8011 1fbd 983e 9b3d
00000200: 6e89 f13c b578 2bbd 708e 5a3d ff92 933d
00000210: 3e8d 8c3d 8806 5b3d 639d 47bd c808 933d
00000220: 70a9 2cbd 6ab2 553d aa9e 24bd cb5a 27bb
00000230: 5b72 713d 9c7e 99bd 45c7 a2bd 1aaf 913d
00000240: 1e20 873d 70db 70bd 5bb2 803d c12d 11bd
00000250: 7840 11bc f35e 5fbc 0c19 063d b6d0 86bd
00000260: 45bf 5a3c ad5c b9bc 9d24 31bd 636b 35bd
00000270: df3f 9cbd 6213 70bb 4c08 2b3d 6a3a 303c
00000280: dce6 723d 3cf5 b4bb bbfb fa3c 28ac 963d
00000290: 5203 a8bd 5e20 3cbd b290 6c3d e07f 56bd
000002a0: fecc 74bd 587a e0bc 6376 4b3d b798 243d
000002b0: 0f18 5bbd 9907 a53d 3611 a6bd c5bf a43d
000002c0: 215e 4cbc f642 db3c b763 84bc b989 acbc
000002d0: 6804 d03c 71c1 1ebd 7e01 0ebd 9a20 ebbc
000002e0: dee0 443d e73d 9d3c 3bae a23d 0c72 99bd
000002f0: e014 8c3d b472 a93d 86bd 48bc bfee 92bd
00000300: 7d62 91bb cde5 cabc 1428 66bd 3631 7a3d
00000310: a1ed cebc 85ac afbc 7900 09bd 2b54 a6bd
00000320: f967 71bc b8cf 0dbc 7874 df3c be3a 293d
00000330: 1f95 ddbc ed86 11bd f6fe 7d3d a88d 97bd
00000340: 1bd1 663d a69f b8bb 8056 923c 584d 143d
00000350: 1a47 93bc b79c 6e3d 767e fd3c fc5a febc
00000360: d899 5bbd 6409 9c3d d0db 6b3d 67c6 9a3d
00000370: 0b09 5f3d d380 c63c 4179 963d 8b47 2d3d
00000380: 9854 7abd 9b69 eebc 7318 c23c 62ad cd3c
00000390: 2255 883d 783b 523d feda 153c 5b6a b8b9
000003a0: d7a7 a93d 2afb 82bd 8a9d 4f3d 6fb8 023b
000003b0: 9525 263d ea53 2ebd f81b 85bd 7f01 913d
000003c0: 8cad 9a3d 4d91 96bd 7ffb 96bd ff6a aabd
000003d0: 5b58 5fbd c596 f03b 5159 8cbb 659f 4a3b
000003e0: 2fbe b93b cf54 7a3c c8ab 9dbd f818 35bd
000003f0: 68f3 873d d265 80bd 6420 11bc 1b88 df3c
-0.045097232 0.01450881 0.022236418 0.082338355 0.051906373 0.077105634 -0.026018782 0.053281885
0.004565871 0.057505846 0.060434025 -0.06994634 -0.05012631 -0.057610873 0.05884362 -0.07287672
-0.020969706 -0.061008293 0.021843692 0.03133654 -0.009236932 -0.018349327 0.07378733 -0.07718324
0.017877866 0.0024771963 0.029875368 -0.03607565 -0.06506707 -0.04426381 0.03170277 -0.04792842
0.009001682 0.08167184 0.075241014 -0.04816996 0.024753073 -0.023964135 0.03894161 -0.078480184
0.03353265 0.039170925 -0.017668303 0.044687342 0.00026969222 0.0019402846 -0.043761138 0.049286984
0.030191839 -0.023070605 -0.06234642 -0.043385103 0.039860096 -0.07777524 0.025462862 0.026210964
0.057404373 -0.035138465 -0.03920545 0.010399108 0.039727475 -0.037450615 -0.054085806 0.062018868
-0.07305419 0.02566236 0.05009098 0.07483637 0.04540063 -0.038686562 -0.016447727 -0.0238161
0.069064334 0.07868918 -0.05990251 0.074441426 0.011220448 0.05223498 -0.05475196 0.019549245
0.05184847 0.005882443 0.04816159 0.052395996 0.010067294 0.044402715 -0.06378199 -0.018586349
-0.024186615 0.012233756 -0.015672717 -0.06325218 -0.056145944 0.07813027 0.023674708 -0.0154739255
-0.06569511 -0.008782173 0.024429962 0.0038070178 0.046543106 -0.03059547 -0.075100586 -0.054461647
0.028590303 -0.04578945 -0.043970026 -0.075625464 0.043367177 -0.018814921 0.055324487 0.07175803
-0.021604162 -0.06836664 0.00594759 0.021733394 -0.0052624145 0.055824332 0.017654672 0.029348683
0.025092155 -0.039831214 -0.059229676 -0.0261396 -0.06726723 -0.071720175 -0.03883505 0.07580298
0.029484477 -0.041863162 0.053358495 0.07205772 0.06862877 0.053473026 -0.04873408 0.07179409
-0.042153776 0.052172102 -0.040190376 -0.0025536295 0.05894695 -0.07494852 -0.07948164 0.07113476
0.06597923 -0.058803022 0.062840186 -0.035444025 -0.008865468 -0.0136334775 0.03273873 -0.06582777
0.013351266 -0.022627199 -0.043247808 -0.044291865 -0.0762937 -0.0036632647 0.04175596 0.0107561145
0.059302196 -0.0055223983 0.030637613 0.07357055 -0.08203758 -0.045929305 0.05775518 -0.052368045
-0.05976581 -0.027402088 0.04967345 0.040184703 -0.05348974 0.0805809 -0.081087515 0.0804439
-0.012473614 0.026765328 -0.016160829 -0.021061765 0.025392726 -0.0387587 -0.03466939 -0.02870207
0.048066013 0.019194556 0.07943388 -0.07492456 0.06839919 0.08273831 -0.012252217 -0.071744435
-0.0044367895 -0.02476778 -0.056190565 0.061082087 -0.025259795 -0.021444568 -0.033447716 -0.081215225
-0.014734262 -0.008655481 0.027277216 0.041315787 -0.027048646 -0.035529066 0.062010728 -0.07400066
0.056351762 -0.005634266 0.017863512 0.036206573 -0.01797824 0.058254924 0.03094409 -0.031049244
-0.053613514 0.076189786 0.057582676 0.075573735 0.054451983 0.02423135 0.07347346 0.042304557
-0.06111583 -0.029103091 0.023693299 0.02510709 0.06656863 0.051326245 0.00914645 -0.00035174456
0.08283966 -0.06395562 0.05068735 0.0019946357 0.040563185 -0.042560495 -0.06499475 0.070803635
0.07552633 -0.07351933 -0.07372188 -0.08321189 -0.05452762 0.007342192 -0.0042831083 0.003091776
0.0056684236 0.015279009 -0.0769878 -0.044213265 0.06638223 -0.06269421 -0.00885782 0.02728658

weight f4 [16]
00000000: 0000 803f 0000 803f 0000 803f 0000 803f
00000010: 0000 803f 0000 803f 0000 803f 0000 803f
00000020: 0000 803f 0000 803f 0000 803f 0000 803f
00000030: 0000 803f 0000 803f 0000 803f 0000 803f
1.0 1.0 1.0 1.0 1.0 1.0 1.0 1.0
1.0 1.0 1.0 1.0 1.0 1.0 1.0 1.0

bias f4 [16]
00000000: aab1 d631 7de0 9cb0 2d88 91b2 f86c f82e
00000010: 12d7 f831 03d1 eeb1 1817 b132 e298 dc30
00000020: 7ab3 cd30 3e79 0132 100a 2db1 a239 4d31
00000030: 8b81 27b2 f8d2 fa32 b8cb 9231 6dec 94b1
6.248418e-09 -1.1414297e-09 -1.6942147e-08 1.1297091e-10 7.2422006e-09 -6.9504735e-09 2.0616014e-08 1.6050559e-09
1.4966723e-09 7.5363555e-09 -2.5180533e-09 2.9864187e-09 -9.750134e-09 2.9199768e-08 4.2723194e-09 -4.3342454e-09

running_mean f4 [16]
00000000: 6bd7 cc3c 0bf3 11bc 2022 983d 64ed a3bc
00000010: e41e c13d d727 2bbd a8df 093e 4322 d6bc
00000020: b905 1abc 414d eebc c973 0b3d 4509 d6bc
00000030: d290 d83c 6dc4 6a3d 2067 27bd 8317 bb3d
0.025005063 -0.008908044 0.07428384 -0.020010658 0.0942972 -0.04178604 0.13464224 -0.026139384
-0.009400778 -0.029089572 0.03404597 -0.026127467 0.026436243 0.057316232 -0.040869832 0.09135344

running_var f4 [16]
00000000: 526c 573e a269 353e d1b3 043f dfe1 9c3e
00000010: 5cda df3e 3e13 273f 210b 883f b931 253e
00000020: f0ac 413e 45b3 123e 8eae 5a3e 5891 5e3e
00000030: 9275 873e 626a a63e c269 973e b20e 063f
0.21037415 0.17716077 0.5183688 0.30641076 0.43721282 0.65263736 1.0628396 0.16132249
0.18913627 0.14326198 0.2135565 0.21735132 0.26456887 0.3250304 0.29572874 0.52366173

weight f4 [16, 16, 3, 3]
00000000: 87e9 a53d afbe ed3c 38b4 15bd b837 67bd
00000010: 18da a93d d988 88bd 8e40 433d 46bd adbc
00000020: 0dc6 523d fda6 ddbc 2c1d 23bc 5d2e 913d
00000030: eb67 033d 2539 12bc 68eb 593d 524e f2bc
00000040: 28a7 43bd cba5 1fbd 6ee6 9abd ad42 07bd
00000050: 80ca 73bd e7dd 02bd 6efe 52bd 9a1a 9dbd
00000060: 4154 04bc 004d c9bb 7eb5 373d 5bfe 5bbd
00000070: 2e69 593c 25dd 6cbd 6b73 b53c df7e 0f3c
00000080: 4075 8fba 23cf d5bc 2bcc 9cbd c3ae 8fbd
00000090: 6cf9 6abd 2dff 833c 75ea db3b 48ab 9ebd
000000a0: dd7d 003d 9686 79bd ebcc b9bc 9ed4 723d
000000b0: b786 873d 6d5c 0fbc 9a69 8fbd aedb f93c
000000c0: 7540 17bd fcf2 4f3d 35b1 b13b af4d 983d
000000d0: ee6a 22bd 4426 25bb b0cc 5ebd 41b5 f13c
000000e0: 5473 80bd 69bb 1cbc 56f9 5a3c b500 003d
000000f0: a5c8 db3c c4e9 92bd 745c 8ebd 661e 043d
00000100: 1b73 0dbd 809f 2ebd 93d7 183d c7b1 a73d
00000110: 0288 983d 68e1 59bc 083c 7a3d 57b0 e2bc
00000120: 80a4 74bd f241 013d a4c2 5c3d 8eed 9a3d
00000130: de4a 023a d0ee 21bd d022 443d c9b4 5ebd
00000140: bbe9 083d ab0e 39bd 1fac a13d 10d8 383d
00000150: 57dc 95bc db78 943c be02 5e3d 05b0 1a3d
00000160: c504 72bc ea92 883b 7b89 20bd 9ada 40bd
00000170: cac4 33bd abaa 6b3d d22c cebb 6e60 7fbd
00000180: f8ef 51bd 9eb2 4cbd 3313 9c3d c885 93bd
00000190: 56eb 163d 9493 9c3d 0e9d 87bd 4631 7fbd
000001a0: 5c8c 953a 9612 e13c 708c ac3c 3271 95bc
000001b0: b3a1 99bd a0bc 8f3d 1b05 e63b a65f ac3c
000001c0: 5ec7 1a3d 5202 06ba 2b8f 02bd b9ec abbc
000001d0: b107 9cbd eb9f c13c 7ecb 993d bea4 94bd
000001e0: e6ae 693d e10f 2dbd 8919 ecbc e18e fa3c
000001f0: faf3 813d 36ba a73c eadb 8b3d 006f aa3d
00000200: ebcf 33bd 733a 713b e324 e8bc a60a ce3c
00000210: 501d 0fbd 2652 6bbd b64e c13c 965e bfbc
00000220: b6d6 873d 4da7 5c3d fdfb 9e3c ba98 22bd
00000230: 01a5 073d dc7b 5cbd d33b 74bd 4add 81bc
00000240: a171 04bd 208e 82bd 344c 8e3a c0e6 11bd
00000250: 0549 243c 9558 38bd 8b29 9d3d 158e 56bc
00000260: 9253 fdbc 8d82 66bc 4d80 283d 099d 093c
00000270: ee50 9b3d eb17 a23d ca91 2fbd da01 873d
00000280: f4fb 8b3d 7fdc 83bd 7630 64bd 81d1 59bd
00000290: f947 0a3d f0d2 2bbd 603f 85bd 6e47 f23c
000002a0: 0fcc 76bd 683b 20bd 79af 103d 7d3b a73d
000002b0: e0fe 983d a0fb 283c 3ba9 14bd 511a fa3c
000002c0: 6ffd 99bd 4652 84bd cc0e 0cbc 4e5a a7bd
000002d0: b29d 8d3c 6291 b0bc 6397 43bd bc9e ec3a
000002e0: c101 3c3c 0c32 a63d ef7f 013d 3e5e 503d
000002f0: 95a7 a2bd dada 8b3d a9ea 8abd 1e9e 433d
00000300: 1a1b 363c 907c d93c c827 353d 261b bcbc
00000310: 261f 9d3c b6c1 893d a4b4 91bc 1aa6 de3c
00000320: 03a4 b1bc 4654 85bd ae94 d2bc 9d4e 9c3d
00000330: 7f0e 9fbc b01c 473d 293b df3c d8a3 a53d
00000340: 84ca dc3c 97c2 83bd 1b6b 8ebd 66d4 8bbd
00000350: 6a68 163d 3e08 a3bd 42d5 7d3d e42d 8cbd
00000360: 8353 38bd e592 3ebd 6b92 93bc 2cbf a03d
00000370: b107 593d 54b3 c53c 4d53 913d ef8f 7e3d
00000380: a1ac b2bb 7b2d 653d 3db5 48bd 7beb e0bc
00000390: 467a 28bd 7a01 bcbc b870 4b3c 04d7 58bd
000003a0: 8380 923b 107b 13bd 0c62 95bd bc1f 133d
000003b0: a1ea 833d 9a71 e33c 726b 7aba 0861 96bd
000003c0: 3e6f 5ebd 8fd7 3c3d 5705 e13c d373 a33d
000003d0: e1e9 9d3c 2ef7 bdbc 9d29 ddbb c306 013c
000003e0: 890a 143d 5d4e 063d 2b28 a1bd 18e1 afbb
000003f0: 30ff a0bc e8bb 06bd 57e9 e1bc 9377 473d
0.081011824 0.02902159 -0.036548823 -0.056449622 0.08293551 -0.066667266 0.047668986 -0.021208417
0.051458407 -0.027057165 -0.009955686 0.07088921 0.032081526 -0.008924757 0.053203017 -0.029578362
-0.047766834 -0.038976472 -0.07563482 -0.03302257 -0.05951929 -0.031949904 -0.051512174 -0.076710895
-0.008076728 -0.0061432123 0.04485082 -0.05370937 0.013269706 -0.057828087 0.022149762 0.008758276
-0.0010944977 -0.026099747 -0.076561294 -0.07015755 -0.057366773 0.016112888 0.006711299 -0.07747513
0.031370033 -0.060919367 -0.02268072 0.0592848 0.06617492 -0.008750063 -0.07002564 0.03050026
-0.036926705 0.050768837 0.005422736 0.07436692 -0.039652757 -0.002519981 -0.054394424 0.029505374
-0.06271997 -0.009566166 0.01336511 0.031250674 0.026829073 -0.071734935 -0.06951228 0.032255553
-0.0345336 -0.04263258 0.037314963 0.08188205 0.074478164 -0.01329837 0.061092407 -0.027671976
-0.059727192 0.03155703 0.05389656 0.07564841 0.00049702625 -0.03953439 0.047884762 -0.05437163
0.033426028 -0.045180004 0.078941576 0.04512793 -0.018293543 0.018124035 0.054201834 0.03776552
-0.014771645 0.004167904 -0.03919361 -0.047083475 -0.043888845 0.05753581 -0.006291964 -0.062347822
-0.051254243 -0.04997503 0.076208495 -0.07203251 0.036845528 0.07645336 -0.06621753 -0.06230285
0.0011409628 0.027474683 0.02106306 -0.018242452 -0.07501545 0.07018399 0.0070196516 0.021041702
0.037787788 -0.000511204 -0.031874817 -0.020986902 -0.076186545 0.023635825 0.07509516 -0.072579846
0.05705156 -0.04225147 -0.02882077 0.030585708 0.06345363 0.020474534 0.06829055 0.08321953
-0.043899458 0.003680852 -0.028337901 0.025151562 -0.034940064 -0.05745139 0.023597103 -0.023360532
0.0663275 0.053870488 0.019407267 -0.039696433 0.033116344 -0.05382906 -0.059627365 -0.01585259
-0.032334927 -0.063747644 0.001085645 -0.03562045 0.010027175 -0.045006353 0.07673939 -0.013095398
-0.030923638 -0.014069212 0.041137982 0.0083992565 0.075837955 0.07914718 -0.042863645 0.0659215
0.068351656 -0.06438541 -0.05571028 -0.053178314 0.033760045 -0.041949213 -0.065062284 0.029575076
-0.0602532 -0.039119154 0.035323594 0.08165643 0.074704885 0.010313898 -0.036294203 0.030530127
-0.07519042 -0.06461005 -0.00854845 -0.08171521 0.017287109 -0.021553699 -0.047751796 0.0018052678
0.011475028 0.081150144 0.031616148 0.050871126 -0.0794212 0.06828852 -0.06783039 0.047758214
0.01111486 0.026548654 0.04422739 -0.022962164 0.019179892 0.067264006 -0.017786331 0.027178813
-0.021684652 -0.065102145 -0.025705662 0.07632182 -0.019416092 0.048611343 0.02724989 0.08087891
0.026952036 -0.064335994 -0.069540225 -0.06827621 0.03672067 -0.079605564 0.061970957 -0.068446904
-0.045001518 -0.04652681 -0.018014153 0.07848963 0.05298585 0.024133362 0.070959665 0.062148985
-0.005452708 0.055951577 -0.049000967 -0.027456036 -0.041132234 -0.022949923 0.012417011 -0.05293943
0.004470886 -0.036006033 -0.072940916 0.035918936 0.06441236 0.02776413 -0.0009552754 -0.07342726
-0.054305308 0.04610401 0.027468367 0.07981076 0.019276561 -0.023189154 -0.0067493455 0.007875147
0.03614286 0.032789577 -0.078689896 -0.0053674094 -0.019652933 -0.032894045 -0.027577085 0.04869802

weight f4 [16]
00000000: 0000 803f 0000 803f 0000 803f 0000 803f
00000010: 0000 803f 0000 803f 0000 803f 0000 803f
00000020: 0000 803f 0000 803f 0000 803f 0000 803f
00000030: 0000 803f 0000 803f 0000 803f 0000 803f
1.0 1.0 1.0 1.0 1.0 1.0 1.0 1.0
1.0 1.0 1.0 1.0 1.0 1.0 1.0 1.0

bias f4 [16]
00000000: 7773 e3b1 4816 b2b1 72c3 fd32 4e52 8132
00000010: 0461 9332 9b26 ac30 24c1 f8b1 5220 3bb2
00000020: c993 1232 841c 0e33 7098 a731 6aaa 81b2
00000030: 1482 e1b2 225a 5232 fcc7 9632 9b72 c6b1
-6.6196963e-09 -5.183015e-09 2.9541955e-08 1.5055004e-08 1.715717e-08 1.2525619e-09 -7.2397075e-09 -1.0892181e-08
8.531921e-09 3.3087886e-08 4.87767e-09 -1.5095072e-08 -2.62526e-08 1.2244103e-08 1.755324e-08 -5.7755876e-09

running_mean f4 [16]
00000000: c9f8 92bd 0ac6 56bd 85cf c73c 85a7 d3bb
00000010: db94 81bd 4862 01bd 4766 eabd 6465 223e
00000020: ba31 46bc 25e0 9ebb 6b5e 58be 0796 0a3e
00000030: d5f0 8f3d 99b0 403e 4661 913d ba7a 1dbc
-0.07176358 -0.05243496 0.024390945 -0.006459179 -0.0632722 -0.03158787 -0.11445289 0.1585899
-0.012096817 -0.0048484975 -0.21129768 0.13533793 0.07028357 0.18817367 0.070986316 -0.00961178

running_var f4 [16]
00000000: ad4c 593e 2fb6 563e 0a0d 5c3e 6803 293e
00000010: 452c 3e3f 915a d43e c2ee 943e 3790 273f
00000020: 3d89 153e 9d60 ea3e c264 633f 4bc9 3a3f
00000030: ca7f ae3e 1c4d 003f d7a8 373f db5e 533e
0.21220656 0.20967935 0.21489349 0.16505206 0.742863 0.41475347 0.29088408 0.6545443
0.14603133 0.45776835 0.8882562 0.729634 0.3408187 0.5011766 0.71742004 0.20641653

weight f4 [16, 16, 3, 3]
00000000: 5db6 b13c 94fa 14bc cc47 9b3d 448b 313d
00000010: 3e3c 06bc e1eb babc 485c 22bd e1d2 d4bc
00000020: bff7 a7bd 0ade a33d 3546 60bc b9af 85bd
00000030: 5f85 a5bd 90c9 913d 7d64 ba3c a6ef 163d
00000040: 38ea 0bbc 4a2d 3d3d c8e1 a1bd 8bb1 003d
00000050: 5dac 993d f80e 46bd 357b 583d 771f 8bbd
00000060: 922b 2c3d e37c 883d cf6d 45bd 4614 87bc
00000070: 0446 6abc 5059 93bd 7cc5 f6ba fa1f 8fbd
00000080: 575c 14bd 55ba f4bc 758b 88bc fc1e 8fbd
00000090: 3042 9bbc 120b 933d 34b5 113d 153b ba3c
000000a0: 10e8 babc 6c02 b8bc 5063 7fbd c386 0a3d
000000b0: bfe8 9a3d 92cc 343c 7a7e f8bc 35bf a1bb
000000c0: 2d87 c13a 1b99 193d 4edf 4dbd a39b 6abd
000000d0: 1fce d53c efb5 0d3c 7371 253c dbe3 dcbc
000000e0: 8ed3 7ebd 0cc2 b0bc 4603 82bb 7718 e23c
000000f0: ef15 a1bd bb0d 3a3d 775f 68bd e0cc 96bb
00000100: b509 88bd 57f7 42bd 0419 0e3c 43d3 a03d
00000110: 4d1a 203c e0a1 9c3d 4e91 90bd b8d9 4c3d
00000120: a603 d93b 8ce1 85bc c65b 673d ee15 cab9
00000130: 85cf 673d 51d4 45bb 13ce 31bd 6f28 933d
00000140: 9805 0fbd adfa b53c 8234 14bc f668 473d
00000150: 0fac 0ebd bb26 ec3c f302 023b d632 a3bd
00000160: a84e 62bb 4c49 76bd 5bd6 8fbd 8f90 1dbc
00000170: de5c 81bd bfb9 553c 74c9 223d 224e a7bd
00000180: bbe6 6abd c6ed 403d 4308 523c 61b8 a1bc
00000190: 2509 8ebd ea6a cf3c a905 8f3c 812e c93c
000001a0: f1f4 2b3d 6361 aa3d 3985 a2bd 0ddc e63c
000001b0: 4a8f e039 7fac 8e3d 726f bc3c fcd4 583d
000001c0: 285c 2dbd 7def 563d a5a7 84bd 5676 1cbd
000001d0: 65b5 a63d 50c8 693d 531a 94bd a067 603d
000001e0: de5f 0b3d cef2 363d b4b3 7a3d 8114 51bd
000001f0: ac9b 703d 82d3 833d 4c62 6e3d 0633 3b3d
00000200: d7f3 0f3d 010b 8d3c 0839 8d3d 7650 edbc
00000210: 6c89 833d 9878 763c c9c4 12bd c7e4 b23c
00000220: e9fd 0dbc 34b0 84bd 50f6 5cbd ded8 923d
00000230: 0554 093d 71b7 a83b c9f0 90bd 0208 773c
00000240: ac1f 09bd 68de 583d faa6 3fbd e8b5 95bd
00000250: 6de3 d03c 3828 82bd 4a47 98bd 1ea0 2bbd
00000260: 3971 45bd 8ffc a03b 6447 8abd e22f 4bbd
00000270: 39a6 56bc 5e78 aabd 3cda 843c 9375 903d
00000280: e238 d93c 6e98 943d 99ab a83d e5b5 8abc
00000290: bf2e 883d 3c6d 31bd 519a 2b3c 54f7 8f3d
000002a0: 2576 9cbd 17ea a8bb cb2b 6abd b303 1cbd
000002b0: 3031 a9bc e326 26bd 6d71 9fbd bfc7 59bc
000002c0: cce7 5fbd 3f2b a23d 760a ae3c da99 cf3c
000002d0: b4b1 883d 2830 a93d 6c07 cdbc c5b0 43bd
000002e0: 9261 50bd 9cac 3c3d 1677 813c 5a07 9ebd
000002f0: 83ff 67bd 6053 aabd be0c 83bd 7a83 22bd
00000300: 6162 853d 37ae f9bc 9ecd 9e3d 6444 063d
00000310: 4a00 4abc cd9c ecbc 73e5 433d bb0a 55bd
00000320: 7b2a bb3c 6b3d d03b b701 87bb 7d20 8e3d
00000330: 2dd5 53bc e515 a53d c410 963d 5187 043d
00000340: 3283 3ebd ed7d 25bd 1f91 863d 3e17 c13c
00000350: 5d89 6dbd 1748 6d3d 5a34 a1bc 2389 053a
00000360: eb6f dc3c f0fe 683c 9eb2 3c3d 3a31 3d3d
00000370: ad08 06bd 21b9 00bd b15d e5bc 6c42 c13c
00000380: 46a8 95bc a860 7b3d d9ce 483d 97c3 e83c
00000390: 4c21 953d 84fd 9d3d 55cd 1abd 4c9f 0dbd
000003a0: 617b fc3b d5a9 403d 3c65 473d aee6 3fbd
000003b0: f8cf 3abd 089d 56bd 6268 a73d 95b3 213d
000003c0: f6df 763c f439 4ebd e413 c6bb 980c 3dbb
000003d0: a0b9 74bd 0ea3 3b3d a8cc 983d cf3c 2fbd
000003e0: 638b a639 37c6 583d 00ef a23c f95e 223d
000003f0: dfa3 943d 9a98 a2bb fb60 af3c 5a15 3d3d
0.021693403 -0.009092946 0.075820535 0.043345705 -0.008193074 -0.022817554 -0.039638788 -0.025979461
-0.08201551 0.08001335 -0.013688614 -0.06527657 -0.08082079 0.07118523 0.022752995 0.03684964
-0.008539729 0.04618577 -0.079043925 0.03141932 0.07503579 -0.04835412 0.052851874 -0.06793111
0.04203374 0.06664445 -0.048200425 -0.01648916 -0.01429892 -0.071947694 -0.0018827165 -0.06988521
-0.036220875 -0.029874006 -0.01666806 -0.06988332 -0.01895246 0.07179846 0.0355732 0.02273325
-0.022815734 -0.022462092 -0.06235057 0.033819925 0.07563924 0.0110351015 -0.030333746 -0.0049361237
0.0014765017 0.03749953 -0.050261788 -0.057277333 0.026099263 0.008649333 0.010097849 -0.026964119
-0.062213473 -0.021576904 -0.0039676754 0.027599556 -0.078655116 0.04542325 -0.056731667 -0.0046020597
-0.066424765 -0.047599163 0.008672956 0.07852795 0.009771896 0.07648063 -0.07058965 0.05001232
0.0066227494 -0.0163429 0.056484006 -0.0003854478 0.05659439 -0.0030186365 -0.04340942 0.071854465
-0.034917444 0.022214258 -0.009045722 0.048684083 -0.034832057 0.028827062 0.0019838184 -0.079686806
-0.0034531746 -0.060128495 -0.07023307 -0.009616985 -0.06316541 0.013044774 0.039742902 -0.081691995
-0.057348948 0.04710176 0.012819353 -0.019741239 -0.06935338 0.025319535 0.017458754 0.024558308
0.04198164 0.08319356 -0.079355665 0.0281811 0.00042831368 0.06966495 0.02300236 0.052937493
-0.042324215 0.052474488 -0.06477288 -0.03819879 0.08140067 0.0570758 -0.072315834 0.054786325
0.034026973 0.04466515 0.061206535 -0.051044945 0.05874221 0.06436826 0.058199212 0.045702957
0.035144653 0.017217161 0.068956435 -0.02896903 0.064226955 0.0150434 -0.0358322 0.021837605
-0.008666494 -0.064789206 -0.05394584 0.071702704 0.033527393 0.005148821 -0.07077176 0.015077593
-0.03347747 0.052946478 -0.0467901 -0.073100865 0.02549907 -0.06355327 -0.07435472 -0.041900747
-0.04820368 0.00491292 -0.06751898 -0.04960621 -0.013101154 -0.083237395 0.016217344 0.070536755
0.026516382 0.07255636 0.08235855 -0.016932437 0.06649541 -0.043317065 0.010473804 0.07029596
-0.07639722 -0.005154859 -0.05717067 -0.038089465 -0.020653337 -0.04056443 -0.07785306 -0.013292252
-0.054664418 0.07918405 0.021245223 0.025341917 0.06674519 0.08261138 -0.025027953 -0.047776002
-0.0508743 0.04606305 0.015803855 -0.07716246 -0.05664016 -0.08316684 -0.06398915 -0.039676167
0.06512905 -0.03047858 0.07754062 0.032780066 -0.0123291705 -0.028883362 0.04782624 -0.052012186
0.022847405 0.006354978 -0.0041200775 0.069397904 -0.012929243 0.08060817 0.073274165 0.03235561
-0.046511836 -0.040403295 0.065706484 0.023570653 -0.057992328 0.05793008 -0.019678283 0.00050939823
0.026908835 0.014220938 0.04606878 0.046189524 -0.032723118 -0.031426553 -0.027998777 0.023591243
-0.018268716 0.061371475 0.04902539 0.028413577 0.072817415 0.0771437 -0.037793476 -0.034575745
0.0077051376 0.047036964 0.04868053 -0.046850853 -0.04560849 -0.05239585 0.08174206 0.039477903
0.015068045 -0.050348237 -0.0060448516 -0.0028846618 -0.05974734 0.045809798 0.0746091 -0.0427826
0.00031765839 0.052923407 0.019889355 0.039641354 0.072578184 -0.004962039 0.021408549 0.04616294

weight f4 [16]
00000000: 0000 803f 0000 803f 0000 803f 0000 803f
00000010: 0000 803f 0000 803f 0000 803f 0000 803f
00000020: 0000 803f 0000 803f 0000 803f 0000 803f
00000030: 0000 803f 0000 803f 0000 803f 0000 803f
1.0 1.0 1.0 1.0 1.0 1.0 1.0 1.0
1.0 1.0 1.0 1.0 1.0 1.0 1.0 1.0

bias f4 [16]
00000000: 09a9 0eb1 3c9d 47b1 95a6 23b1 c15a 7fb2
00000010: 2c27 acb1 2cff 88b2 fa63 f0b2 63f0 8e33
00000020: 068e 7332 1651 44b3 096b 1532 e042 23b3
00000030: db6b 0eb2 cce7 1433 76b1 4433 6b66 41b3
-2.0759805e-09 -2.9047689e-09 -2.3814313e-09 -1.4863589e-08 -5.010312e-09 -1.5948523e-08 -2.7985141e-08 6.6561164e-08
1.4176754e-08 -4.5708553e-08 8.6972785e-09 -3.8012217e-08 -8.290011e-09 3.4669753e-08 4.5796206e-08 -4.5029463e-08

running_mean f4 [16]
00000000: ef1e 773d 04a2 133e 54a3 4c3e 77d6 a93e
00000010: 2062 32be b747 13bd 5e98 773e bfae c1bd
00000020: 289e fcbd 3fae 603d 968d dfbd 46ef 3dbe
00000030: d7b4 acbc 9278 c93d dc80 303e c6d9 1abd
0.060332235 0.14417273 0.1998418 0.33171436 -0.17420244 -0.035957064 0.24179217 -0.09457158
-0.123348534 0.054853674 -0.10915677 -0.18548307 -0.021082325 0.0983745 0.17236656 -0.03780534

running_var f4 [16]
00000000: 83b0 873e 99cb 903e f794 d53e 576c 253f
00000010: a95d 2d3e c985 b03e 6d6c e13e 29c9 7d3e
00000020: 3827 4b3e be51 9a3e 5302 ad3e ccfa ab3e
00000030: f6b7 d73e 8924 9b3e 2f62 b33e f8a5 753e
0.26501855 0.28280333 0.41715214 0.6461844 0.1693026 0.3447707 0.44028035 0.24783768
0.1983918 0.3014049 0.33790836 0.3358978 0.4213254 0.30301312 0.35035846 0.23989093

weight f4 [16, 2, 5, 5]
00000000: 0892 61bd 8081 c63d 4dc6 ae3d aecc c7bd
00000010: 9cb1 d53d d5ac 323d 50fb 1dbc 2eb8 bbbd
00000020: ce3f 9c3d c6d3 b53d aa01 a83d e6aa f93d
00000030: 782f fabd d687 bdbd 6bd6 70bd 7776 063d
00000040: 1dc4 983d 8e5d 0b3c e71e c0bd b69d 3a3d
00000050: 7870 933d 9182 d93d 35f4 9ebd 11d6 4b3d
00000060: dc3c 9a3d 5843 c83d 85a7 f63c 9182 ecba
00000070: 1cef 1f3c 4151 f23d 952f d3bd 4bdd c63d
00000080: fae3 b23d 1e92 403d 0221 a63d 43ef 01be
00000090: dd84 c3bd 3f5e 46bd acdb 69bd b1c1 e7bd
000000a0: 20a2 123b ea85 993d 7795 013e 602e dc3c
000000b0: 1f5f 9ebd 6404 d2bd 28e8 06bd 72f3 e2bd
000000c0: 747f 0d3e 48ff 16bd bde5 173c c994 b53d
000000d0: 5eb1 003e ebd9 0dbe 6d28 54bd 0147 853d
000000e0: 8727 b1bd 21d0 ff3d 07f9 3d3d c1b2 a73d
000000f0: 19ca bbbd 31b0 833c 4d63 01be 98dd a43c
00000100: 307b c93d 7114 1c3d d852 d5bc 8a4b 0b3e
00000110: af9c b93d 29d9 d3bc c4a4 93bd c40b a33c
00000120: a15c e0bb c48f ef3d 03a1 08be 78b6 06be
00000130: b028 b43c 81fc ac3d 2546 a73d 47d3 80bd
00000140: c08a 493d 6714 9dbc 0664 82bd 1e2f f4bc
00000150: ec85 00bc 4427 36bd 82c7 9fbd f773 3f3d
00000160: c681 f33c f672 e3bd 3b67 d2bb 7bc3 733c
00000170: 0a6a 963c 5f4a 02be 2e01 0ebe 36bf 4dbd
00000180: f934 563d 7478 ae3d 1e69 6cbd 0a0e 45bd
00000190: a554 c43d 0bc3 103d 26a2 acbd c450 ea3d
000001a0: b2bd 6a3c 1c67 3ebd 8c65 bb3d f32c e5bd
000001b0: edbf 343d 89dc 5bbd 7613 b03d 8b92 4dbd
000001c0: 0669 61bd 8766 48bd 4ed3 debd adb1 6a3d
000001d0: be40 e83c 5831 c7bd 72c6 9c3d 7e70 ff3d
000001e0: 77c0 c4bd 21cd cabc 98fb 64bc f929 52bd
000001f0: 1528 b6bd fc61 8dbd 1664 10bd e877 edbd
00000200: fcc0 f1bc 12e1 923d 0bb8 ae3c 724b 303d
00000210: 7bc4 973d 2ba8 c83c d0e3 413d 6eac 063e
00000220: 7c98 3f3d a586 733d 8623 5fbc b925 71bd
00000230: 0303 e3bc aded c9bc 55b7 46bd eb3c e03d
00000240: 6d75 4dbd ce29 9bbc 7c5b eabd 0a39 e23d
00000250: 8904 ebbd eaf9 c9bb 9ac2 053d 7432 4a3d
00000260: b863 cd3c ef5e 09be c839 ba3c a270 cfbd
00000270: 5952 b1bc 94a1 ddbc 89a9 92bc 5109 65bd
00000280: ddcb c6bd ea91 eabb c612 0b3e 67f1 d23d
00000290: 2e9e d8bd 6179 883d bc01 eebd 7a14 dbbd
000002a0: e76a e63d e918 03be ed3e 00be d345 53bc
000002b0: da9f cb3d 6fe7 bb3d 41ef 49bd 691d 093e
000002c0: 5154 7bbc a25e 92bd 9dc8 0b3e c4d1 b7bd
000002d0: ddf8 043c b32e e8bd 6ed2 b4bc c650 d2bd
000002e0: 3816 8f3c 916b 18bd 2980 f1bd b658 053d
000002f0: c6e7 e3bc dfed cdbd ad8d 023e 1d7d 0ebd
00000300: bbba 403c 60c6 c7bd e32e 473d 34c5 03be
00000310: 462a 83bc fb32 fb3c 7731 93bd eb21 f3bd
00000320: 3d0f 28bb b7b6 a23d cdb9 08be 6c4d c33d
00000330: dc9b fd3d 2cb9 cb3d 6276 c4bc d1e6 8fbd
00000340: acc0 023c 519b 7d3c e4c7 503d b0ae fcbd
00000350: 5d71 f63c bdf4 333d a84f b8bd a26f d3bd
00000360: b80e e3bc 538d b5bd 8810 01bc 32e7 7a3d
00000370: d824 0c3e 9dfb d23c e7b2 b53c be5b 17bd
00000380: f427 b83d 27ef 993d 2a1f 913d 6bc5 d3bd
00000390: 52b4 f3bd 8c30 73bd 6bc8 99bd 520b 873c
000003a0: 8395 bdbd 48e7 0ebe 197b 5d3d 8586 8e3d
000003b0: 8955 2bbd 7471 dcbd df90 f83d 184c 113c
000003c0: 647c 2a3c 355e 163d 8b65 e03c 5451 ca3d
000003d0: b76a f4bc 6959 bcbd abdf 063e 405c 803a
000003e0: b9b7 b8bd 05cb 773d 20d1 b7bc a205 f8bd
000003f0: f66b b83d e5f4 0bbd 6f55 babc 9fe5 ab3d
-0.055070907 0.09692669 0.085339166 -0.097558364 0.10434267 0.043621857 -0.009642437 -0.09165989
0.07629357 0.08878283 0.082034424 0.121907994 -0.12216085 -0.09254424 -0.058798235 0.03282782
0.07459281 0.008506192 -0.09380894 0.04556056 0.07199186 0.10620607 -0.077614225 0.049764697
0.07531139 0.0977847 0.030109176 -0.0018044283 0.009761598 0.11831904 -0.1031181 0.09710177
0.08734889 0.04701435 0.081117645 -0.12688927 -0.09546826 -0.048429724 -0.05709426 -0.113162406
0.0022374466 0.07496245 0.12654673 0.026877582 -0.07732987 -0.10254744 -0.032936245 -0.1108159
0.13818151 -0.03686455 0.0092710825 0.08866269 0.1256766 -0.1385266 -0.051796366 0.065076835
-0.08650117 0.12490869 0.04638007 0.081883915 -0.091694064 0.016075226 -0.12635536 0.020125195
0.09837949 0.038105432 -0.02604048 0.13603035 0.09063088 -0.025860386 -0.07209161 0.019903071
-0.0068469797 0.11697343 -0.13342671 -0.13155544 0.021992058 0.08446599 0.08167676 -0.06290298
0.049204588 -0.019174768 -0.06366734 -0.029807623 -0.007844429 -0.04447104 -0.07801725 0.046741452
0.029724967 -0.111059114 -0.0064209974 0.014878149 0.01836111 -0.12723683 -0.13867638 -0.05023118
0.052296612 0.08519068 -0.057717435 -0.04810909 0.09586457 0.035342257 -0.08429365 0.11441186
0.014327453 -0.04648505 0.09150228 -0.11190214 0.044128347 -0.053677116 0.08597462 -0.050188582
-0.0550318 -0.048925903 -0.10880147 0.05729835 0.028351184 -0.097262084 0.07655038 0.12472628
-0.09607022 -0.024756016 -0.013976 -0.05130956 -0.08894364 -0.06903455 -0.0352517 -0.11595136
-0.029510967 0.07171835 0.021327993 0.0430407 0.074105226 0.024494251 0.0473364 0.13151714
0.04677628 0.05945458 -0.013619309 -0.058873866 -0.027711397 -0.024649465 -0.048514683 0.10949119
-0.050160814 -0.018940832 -0.114432305 0.110460356 -0.114754744 -0.0061638253 0.03265629 0.049364522
0.025071964 -0.1341512 0.02273263 -0.10128905 -0.021645712 -0.027054586 -0.017903106 -0.055917088
-0.097068526 -0.0071585076 0.1358138 0.1029995 -0.105770454 0.06663776 -0.116214246 -0.10697265
0.11250859 -0.12802471 -0.12524004 -0.012895065 0.09942599 0.09175002 -0.049300436 0.13390125
-0.015339927 -0.07146956 0.13650747 -0.089755565 0.008115974 -0.11337032 -0.022072997 -0.102693126
0.01746665 -0.03721196 -0.11792023 0.032555304 -0.02782048 -0.10055136 0.12749358 -0.034787286
0.01176327 -0.09754634 0.0486287 -0.12868196 -0.016011368 0.030663958 -0.07187169 -0.11871704
-0.0025643848 0.07945006 -0.13352127 0.095362514 0.123832434 0.09947428 -0.02398223 -0.070264466
0.007980507 0.015478925 0.05097188 -0.123380065 0.030083353 0.043934572 -0.08999568 -0.10324027
-0.02771698 -0.08864846 -0.0078774765 0.06125564 0.1368593 0.025754744 0.022180034 -0.036952727
0.089919955 0.07516318 0.07086022 -0.10340389 -0.11899628 -0.05937247 -0.0750893 0.01648489
-0.09257033 -0.13955414 0.054072473 0.06959251 -0.04182962 -0.10763827 0.12137007 0.00886824
0.010405634 0.036710937 0.02739217 0.09878793 -0.029836042 -0.09196741 0.1317126 0.0009793118
-0.09019417 0.06049635 -0.022438586 -0.121104494 0.09004967 -0.034169096 -0.022745816 0.08393406

weight f4 [16]
00000000: 0000 803f 0000 803f 0000 803f 0000 803f
00000010: 0000 803f 0000 803f 0000 803f 0000 803f
00000020: 0000 803f 0000 803f 0000 803f 0000 803f
00000030: 0000 803f 0000 803f 0000 803f 0000 803f
1.0 1.0 1.0 1.0 1.0 1.0 1.0 1.0
1.0 1.0 1.0 1.0 1.0 1.0 1.0 1.0

bias f4 [16]
00000000: 1cb2 5032 ab63 7630 1ef7 822f 8c06 1bb1
00000010: bc71 deaf e3ea 06b0 4630 20b1 0246 1ab1
00000020: e4de 89b1 c1a1 0a32 ac37 04b1 9714 ad31
00000030: 8969 1332 fa82 dab0 06f6 aab1 1d2f 21b1
1.2147691e-08 8.9635915e-10 2.382245e-10 -2.255919e-09 -4.0462378e-10 -4.908271e-10 -2.3310505e-09 -2.2449744e-09
-4.0125645e-09 8.069436e-09 -1.9240174e-09 5.0373035e-09 8.580522e-09 -1.5898813e-09 -4.975621e-09 -2.3455364e-09

running_mean f4 [16]
00000000: f253 053b dc56 2bba 7002 23ba 365f 82bb
00000010: d3ec 4938 8276 193a a2f7 533a ada1 1b3a
00000020: 380d 6a3a 2d9f 7abb 5f6d 253b 5bda 23bb
00000030: c22b ba3a f26e 03bb 3b24 1abb 0262 c739
0.0020344225 -0.00065360754 -0.000621832 -0.003978635 4.8142694e-05 0.0005854146 0.00080859114 0.00059368723
0.00089283613 -0.0038241849 0.0025242192 -0.0025001976 0.0014203715 -0.0020055142 -0.002352013 0.0003802926

running_var f4 [16]
00000000: aa72 4e3a ead5 d039 4a95 8639 102b 223b
00000010: 7df2 aa39 f233 f339 7abc 523a 0cc3 f639
00000020: f7be b939 ef8b 133b 63fc f33a e228 9c3a
00000030: 1207 133a 0b7c f33a 6f26 9f3a f874 c83a
0.00078753626 0.0003983223 0.000256697 0.0024744906 0.00032605595 0.00046387274 0.00080389495 0.00047066098
0.0003542823 0.0022513827 0.0018614646 0.001191404 0.00056086585 0.0018576396 0.0012142191 0.0015293648
